{"format": "graph-model", "generatedBy": "2.4.0", "convertedBy": "TensorFlow.js Converter v3.19.0", "signature": {"inputs": {"input_tensor": {"name": "input_tensor:0", "dtype": "DT_UINT8", "tensorShape": {"dim": [{"size": "1"}, {"size": "-1"}, {"size": "-1"}, {"size": "3"}]}}}, "outputs": {"detection_boxes": {"name": "Identity:0", "dtype": "DT_FLOAT", "tensorShape": {"dim": [{"size": "1"}, {"size": "100"}, {"size": "4"}]}}, "Identity_4:0": {"name": "Identity_4:0", "dtype": "DT_FLOAT", "tensorShape": {"dim": [{"size": "1"}, {"size": "100"}]}}, "detection_keypoint_scores": {"name": "Identity_2:0", "dtype": "DT_FLOAT", "tensorShape": {"dim": [{"size": "1"}, {"size": "100"}, {"size": "17"}]}}, "Identity_1:0": {"name": "Identity_1:0", "dtype": "DT_FLOAT", "tensorShape": {"dim": [{"size": "1"}, {"size": "100"}]}}, "detection_keypoints": {"name": "Identity_3:0", "dtype": "DT_FLOAT", "tensorShape": {"dim": [{"size": "1"}, {"size": "100"}, {"size": "17"}, {"size": "2"}]}}, "num_detections": {"name": "Identity_5:0", "dtype": "DT_FLOAT", "tensorShape": {"dim": [{"size": "1"}]}}}}, "modelTopology": {"node": [{"name": "ConstantFolding/StatefulPartitionedCall/ClipToWindow/unstack-folded-2", "op": "Const", "attr": {"dtype": {"type": "DT_FLOAT"}, "value": {"tensor": {"dtype": "DT_FLOAT", "tensorShape": {}}}}}, {"name": "ConstantFolding/StatefulPartitionedCall/ClipToWindow/unstack-folded-0", "op": "Const", "attr": {"dtype": {"type": "DT_FLOAT"}, "value": {"tensor": {"dtype": "DT_FLOAT", "tensorShape": {}}}}}, {"name": "StatefulPartitionedCall/ClipToWindow/split/split_dim", "op": "Const", "attr": {"value": {"tensor": {"dtype": "DT_INT32", "tensorShape": {}}}, "dtype": {"type": "DT_INT32"}}}, {"name": "StatefulPartitionedCall/ToNormalizedCoordinates/Scale/split/split_dim", "op": "Const", "attr": {"dtype": {"type": "DT_INT32"}, "value": {"tensor": {"dtype": "DT_INT32", "tensorShape": {}}}}}, {"name": "StatefulPartitionedCall/ToNormalizedCoordinates/Scale/concat/axis", "op": "Const", "attr": {"dtype": {"type": "DT_INT32"}, "value": {"tensor": {"dtype": "DT_INT32", "tensorShape": {}}}}}, {"name": "ConstantFolding/StatefulPartitionedCall/ClipToWindow/unstack-folded-3", "op": "Const", "attr": {"dtype": {"type": "DT_FLOAT"}, "value": {"tensor": {"dtype": "DT_FLOAT", "tensorShape": {}}}}}, {"name": "ConstantFolding/StatefulPartitionedCall/ClipToWindow/unstack-folded-1", "op": "Const", "attr": {"dtype": {"type": "DT_FLOAT"}, "value": {"tensor": {"dtype": "DT_FLOAT", "tensorShape": {}}}}}, {"name": "StatefulPartitionedCall/ClipToWindow/concat/axis", "op": "Const", "attr": {"dtype": {"type": "DT_INT32"}, "value": {"tensor": {"dtype": "DT_INT32", "tensorShape": {}}}}}, {"name": "StatefulPartitionedCall/add_7/y", "op": "Const", "attr": {"dtype": {"type": "DT_FLOAT"}, "value": {"tensor": {"dtype": "DT_FLOAT", "tensorShape": {}}}}}, {"name": "StatefulPartitionedCall/strided_slice_4/stack", "op": "Const", "attr": {"value": {"tensor": {"dtype": "DT_INT32", "tensorShape": {"dim": [{"size": "4"}]}}}, "dtype": {"type": "DT_INT32"}}}, {"name": "StatefulPartitionedCall/strided_slice_4/stack_1", "op": "Const", "attr": {"value": {"tensor": {"dtype": "DT_INT32", "tensorShape": {"dim": [{"size": "4"}]}}}, "dtype": {"type": "DT_INT32"}}}, {"name": "StatefulPartitionedCall/strided_slice_4/stack_2", "op": "Const", "attr": {"value": {"tensor": {"dtype": "DT_INT32", "tensorShape": {"dim": [{"size": "4"}]}}}, "dtype": {"type": "DT_INT32"}}}, {"name": "StatefulPartitionedCall/GreaterEqual/y", "op": "Const", "attr": {"dtype": {"type": "DT_FLOAT"}, "value": {"tensor": {"dtype": "DT_FLOAT", "tensorShape": {}}}}}, {"name": "StatefulPartitionedCall/strided_slice_5/stack", "op": "Const", "attr": {"value": {"tensor": {"dtype": "DT_INT32", "tensorShape": {"dim": [{"size": "4"}]}}}, "dtype": {"type": "DT_INT32"}}}, {"name": "StatefulPartitionedCall/strided_slice_5/stack_1", "op": "Const", "attr": {"value": {"tensor": {"dtype": "DT_INT32", "tensorShape": {"dim": [{"size": "4"}]}}}, "dtype": {"type": "DT_INT32"}}}, {"name": "StatefulPartitionedCall/strided_slice_5/stack_2", "op": "Const", "attr": {"dtype": {"type": "DT_INT32"}, "value": {"tensor": {"dtype": "DT_INT32", "tensorShape": {"dim": [{"size": "4"}]}}}}}, {"name": "StatefulPartitionedCall/LessEqual/y", "op": "Const", "attr": {"value": {"tensor": {"dtype": "DT_FLOAT", "tensorShape": {}}}, "dtype": {"type": "DT_FLOAT"}}}, {"name": "StatefulPartitionedCall/strided_slice_6/stack", "op": "Const", "attr": {"dtype": {"type": "DT_INT32"}, "value": {"tensor": {"dtype": "DT_INT32", "tensorShape": {"dim": [{"size": "4"}]}}}}}, {"name": "StatefulPartitionedCall/strided_slice_6/stack_1", "op": "Const", "attr": {"dtype": {"type": "DT_INT32"}, "value": {"tensor": {"dtype": "DT_INT32", "tensorShape": {"dim": [{"size": "4"}]}}}}}, {"name": "StatefulPartitionedCall/strided_slice_6/stack_2", "op": "Const", "attr": {"value": {"tensor": {"dtype": "DT_INT32", "tensorShape": {"dim": [{"size": "4"}]}}}, "dtype": {"type": "DT_INT32"}}}, {"name": "StatefulPartitionedCall/GreaterEqual_1/y", "op": "Const", "attr": {"value": {"tensor": {"dtype": "DT_FLOAT", "tensorShape": {}}}, "dtype": {"type": "DT_FLOAT"}}}, {"name": "StatefulPartitionedCall/strided_slice_7/stack", "op": "Const", "attr": {"value": {"tensor": {"dtype": "DT_INT32", "tensorShape": {"dim": [{"size": "4"}]}}}, "dtype": {"type": "DT_INT32"}}}, {"name": "StatefulPartitionedCall/strided_slice_7/stack_1", "op": "Const", "attr": {"dtype": {"type": "DT_INT32"}, "value": {"tensor": {"dtype": "DT_INT32", "tensorShape": {"dim": [{"size": "4"}]}}}}}, {"name": "StatefulPartitionedCall/strided_slice_7/stack_2", "op": "Const", "attr": {"dtype": {"type": "DT_INT32"}, "value": {"tensor": {"dtype": "DT_INT32", "tensorShape": {"dim": [{"size": "4"}]}}}}}, {"name": "StatefulPartitionedCall/LessEqual_1/y", "op": "Const", "attr": {"value": {"tensor": {"dtype": "DT_FLOAT", "tensorShape": {}}}, "dtype": {"type": "DT_FLOAT"}}}, {"name": "StatefulPartitionedCall/zeros_like", "op": "Const", "attr": {"value": {"tensor": {"dtype": "DT_FLOAT", "tensorShape": {"dim": [{"size": "1"}, {"size": "100"}, {"size": "17"}]}}}, "dtype": {"type": "DT_FLOAT"}}}, {"name": "StatefulPartitionedCall/map/TensorArrayV2_2/element_shape", "op": "Const", "attr": {"dtype": {"type": "DT_INT32"}, "value": {"tensor": {"dtype": "DT_INT32", "tensorShape": {}}}}}, {"name": "StatefulPartitionedCall/map/TensorArrayV2_2/num_elements", "op": "Const", "attr": {"dtype": {"type": "DT_INT32"}, "value": {"tensor": {"dtype": "DT_INT32", "tensorShape": {}}}}}, {"name": "StatefulPartitionedCall/Greater_2/y", "op": "Const", "attr": {"value": {"tensor": {"dtype": "DT_INT32", "tensorShape": {}}}, "dtype": {"type": "DT_INT32"}}}, {"name": "StatefulPartitionedCall/truediv_5/x", "op": "Const", "attr": {"value": {"tensor": {"dtype": "DT_FLOAT", "tensorShape": {}}}, "dtype": {"type": "DT_FLOAT"}}}, {"name": "StatefulPartitionedCall/truediv_6/x", "op": "Const", "attr": {"value": {"tensor": {"dtype": "DT_FLOAT", "tensorShape": {}}}, "dtype": {"type": "DT_FLOAT"}}}, {"name": "StatefulPartitionedCall/Reshape_5/shape", "op": "Const", "attr": {"value": {"tensor": {"dtype": "DT_INT32", "tensorShape": {"dim": [{"size": "4"}]}}}, "dtype": {"type": "DT_INT32"}}}, {"name": "StatefulPartitionedCall/map/TensorArrayUnstack/TensorListFromTensor/element_shape", "op": "Const", "attr": {"dtype": {"type": "DT_INT32"}, "value": {"tensor": {"dtype": "DT_INT32", "tensorShape": {"dim": [{"size": "3"}]}}}}}, {"name": "StatefulPartitionedCall/Tile", "op": "Const", "attr": {"dtype": {"type": "DT_FLOAT"}, "value": {"tensor": {"dtype": "DT_FLOAT", "tensorShape": {"dim": [{"size": "1"}, {"size": "4"}]}}}}}, {"name": "StatefulPartitionedCall/map/TensorArrayUnstack_1/TensorListFromTensor/element_shape", "op": "Const", "attr": {"value": {"tensor": {"dtype": "DT_INT32", "tensorShape": {"dim": [{"size": "1"}]}}}, "dtype": {"type": "DT_INT32"}}}, {"name": "StatefulPartitionedCall/map/while/maximum_iterations", "op": "Const", "attr": {"value": {"tensor": {"dtype": "DT_INT32", "tensorShape": {}}}, "dtype": {"type": "DT_INT32"}}}, {"name": "StatefulPartitionedCall/map/Const", "op": "Const", "attr": {"dtype": {"type": "DT_INT32"}, "value": {"tensor": {"dtype": "DT_INT32", "tensorShape": {}}}}}, {"name": "StatefulPartitionedCall/map/while/loop_counter", "op": "Const", "attr": {"dtype": {"type": "DT_INT32"}, "value": {"tensor": {"dtype": "DT_INT32", "tensorShape": {}}}}}, {"name": "StatefulPartitionedCall/map/TensorArrayV2Stack/TensorListStack/element_shape", "op": "Const", "attr": {"dtype": {"type": "DT_INT32"}, "value": {"tensor": {"dtype": "DT_INT32", "tensorShape": {"dim": [{"size": "3"}]}}}}}, {"name": "unknown_843", "op": "Const", "attr": {"value": {"tensor": {"dtype": "DT_FLOAT", "tensorShape": {"dim": [{"size": "3"}, {"size": "3"}, {"size": "256"}, {"size": "256"}]}}}, "dtype": {"type": "DT_FLOAT"}}}, {"name": "unknown_844", "op": "Const", "attr": {"value": {"tensor": {"dtype": "DT_FLOAT", "tensorShape": {"dim": [{"size": "256"}]}}}, "dtype": {"type": "DT_FLOAT"}}}, {"name": "unknown_845", "op": "Const", "attr": {"dtype": {"type": "DT_FLOAT"}, "value": {"tensor": {"dtype": "DT_FLOAT", "tensorShape": {"dim": [{"size": "1"}, {"size": "1"}, {"size": "256"}, {"size": "34"}]}}}}}, {"name": "unknown_846", "op": "Const", "attr": {"value": {"tensor": {"dtype": "DT_FLOAT", "tensorShape": {"dim": [{"size": "34"}]}}}, "dtype": {"type": "DT_FLOAT"}}}, {"name": "unknown_827", "op": "Const", "attr": {"value": {"tensor": {"dtype": "DT_FLOAT", "tensorShape": {"dim": [{"size": "3"}, {"size": "3"}, {"size": "256"}, {"size": "256"}]}}}, "dtype": {"type": "DT_FLOAT"}}}, {"name": "unknown_828", "op": "Const", "attr": {"dtype": {"type": "DT_FLOAT"}, "value": {"tensor": {"dtype": "DT_FLOAT", "tensorShape": {"dim": [{"size": "256"}]}}}}}, {"name": "unknown_829", "op": "Const", "attr": {"value": {"tensor": {"dtype": "DT_FLOAT", "tensorShape": {"dim": [{"size": "1"}, {"size": "1"}, {"size": "256"}, {"size": "17"}]}}}, "dtype": {"type": "DT_FLOAT"}}}, {"name": "unknown_830", "op": "Const", "attr": {"dtype": {"type": "DT_FLOAT"}, "value": {"tensor": {"dtype": "DT_FLOAT", "tensorShape": {"dim": [{"size": "17"}]}}}}}, {"name": "unknown_835", "op": "Const", "attr": {"value": {"tensor": {"dtype": "DT_FLOAT", "tensorShape": {"dim": [{"size": "3"}, {"size": "3"}, {"size": "256"}, {"size": "256"}]}}}, "dtype": {"type": "DT_FLOAT"}}}, {"name": "unknown_836", "op": "Const", "attr": {"dtype": {"type": "DT_FLOAT"}, "value": {"tensor": {"dtype": "DT_FLOAT", "tensorShape": {"dim": [{"size": "256"}]}}}}}, {"name": "unknown_837", "op": "Const", "attr": {"dtype": {"type": "DT_FLOAT"}, "value": {"tensor": {"dtype": "DT_FLOAT", "tensorShape": {"dim": [{"size": "1"}, {"size": "1"}, {"size": "256"}, {"size": "34"}]}}}}}, {"name": "unknown_838", "op": "Const", "attr": {"dtype": {"type": "DT_FLOAT"}, "value": {"tensor": {"dtype": "DT_FLOAT", "tensorShape": {"dim": [{"size": "34"}]}}}}}, {"name": "StatefulPartitionedCall/range", "op": "Const", "attr": {"dtype": {"type": "DT_INT32"}, "value": {"tensor": {"dtype": "DT_INT32", "tensorShape": {"dim": [{"size": "100"}]}}}}}, {"name": "StatefulPartitionedCall/Greater/y", "op": "Const", "attr": {"dtype": {"type": "DT_FLOAT"}, "value": {"tensor": {"dtype": "DT_FLOAT", "tensorShape": {}}}}}, {"name": "StatefulPartitionedCall/Sum/reduction_indices", "op": "Const", "attr": {"value": {"tensor": {"dtype": "DT_INT32", "tensorShape": {}}}, "dtype": {"type": "DT_INT32"}}}, {"name": "StatefulPartitionedCall/strided_slice_1/stack", "op": "Const", "attr": {"dtype": {"type": "DT_INT32"}, "value": {"tensor": {"dtype": "DT_INT32", "tensorShape": {"dim": [{"size": "1"}]}}}}}, {"name": "StatefulPartitionedCall/strided_slice_1/stack_1", "op": "Const", "attr": {"dtype": {"type": "DT_INT32"}, "value": {"tensor": {"dtype": "DT_INT32", "tensorShape": {"dim": [{"size": "1"}]}}}}}, {"name": "StatefulPartitionedCall/strided_slice_1/stack_2", "op": "Const", "attr": {"value": {"tensor": {"dtype": "DT_INT32", "tensorShape": {"dim": [{"size": "1"}]}}}, "dtype": {"type": "DT_INT32"}}}, {"name": "StatefulPartitionedCall/mod_1/y", "op": "Const", "attr": {"dtype": {"type": "DT_INT32"}, "value": {"tensor": {"dtype": "DT_INT32", "tensorShape": {}}}}}, {"name": "StatefulPartitionedCall/strided_slice/stack", "op": "Const", "attr": {"value": {"tensor": {"dtype": "DT_INT32", "tensorShape": {"dim": [{"size": "2"}]}}}, "dtype": {"type": "DT_INT32"}}}, {"name": "StatefulPartitionedCall/strided_slice/stack_1", "op": "Const", "attr": {"dtype": {"type": "DT_INT32"}, "value": {"tensor": {"dtype": "DT_INT32", "tensorShape": {"dim": [{"size": "2"}]}}}}}, {"name": "StatefulPartitionedCall/strided_slice/stack_2", "op": "Const", "attr": {"dtype": {"type": "DT_INT32"}, "value": {"tensor": {"dtype": "DT_INT32", "tensorShape": {"dim": [{"size": "2"}]}}}}}, {"name": "StatefulPartitionedCall/strided_slice_2/stack", "op": "Const", "attr": {"value": {"tensor": {"dtype": "DT_INT32", "tensorShape": {"dim": [{"size": "1"}]}}}, "dtype": {"type": "DT_INT32"}}}, {"name": "StatefulPartitionedCall/strided_slice_2/stack_1", "op": "Const", "attr": {"dtype": {"type": "DT_INT32"}, "value": {"tensor": {"dtype": "DT_INT32", "tensorShape": {"dim": [{"size": "1"}]}}}}}, {"name": "StatefulPartitionedCall/strided_slice_2/stack_2", "op": "Const", "attr": {"dtype": {"type": "DT_INT32"}, "value": {"tensor": {"dtype": "DT_INT32", "tensorShape": {"dim": [{"size": "1"}]}}}}}, {"name": "StatefulPartitionedCall/Equal/y", "op": "Const", "attr": {"dtype": {"type": "DT_INT32"}, "value": {"tensor": {"dtype": "DT_INT32", "tensorShape": {}}}}}, {"name": "StatefulPartitionedCall/strided_slice_3/stack", "op": "Const", "attr": {"value": {"tensor": {"dtype": "DT_INT32", "tensorShape": {"dim": [{"size": "2"}]}}}, "dtype": {"type": "DT_INT32"}}}, {"name": "StatefulPartitionedCall/strided_slice_3/stack_1", "op": "Const", "attr": {"dtype": {"type": "DT_INT32"}, "value": {"tensor": {"dtype": "DT_INT32", "tensorShape": {"dim": [{"size": "2"}]}}}}}, {"name": "StatefulPartitionedCall/strided_slice_3/stack_2", "op": "Const", "attr": {"value": {"tensor": {"dtype": "DT_INT32", "tensorShape": {"dim": [{"size": "2"}]}}}, "dtype": {"type": "DT_INT32"}}}, {"name": "StatefulPartitionedCall/Greater_1/y", "op": "Const", "attr": {"dtype": {"type": "DT_INT32"}, "value": {"tensor": {"dtype": "DT_INT32", "tensorShape": {}}}}}, {"name": "StatefulPartitionedCall/Assert_4/Condition", "op": "Const", "attr": {"value": {"tensor": {"dtype": "DT_BOOL", "tensorShape": {}}}, "dtype": {"type": "DT_BOOL"}}}, {"name": "StatefulPartitionedCall/Assert_3/Condition", "op": "Const", "attr": {"dtype": {"type": "DT_BOOL"}, "value": {"tensor": {"dtype": "DT_BOOL", "tensorShape": {}}}}}, {"name": "StatefulPartitionedCall/Assert_2/Condition", "op": "Const", "attr": {"dtype": {"type": "DT_BOOL"}, "value": {"tensor": {"dtype": "DT_BOOL", "tensorShape": {}}}}}, {"name": "StatefulPartitionedCall/Assert_1/Condition", "op": "Const", "attr": {"value": {"tensor": {"dtype": "DT_BOOL", "tensorShape": {}}}, "dtype": {"type": "DT_BOOL"}}}, {"name": "StatefulPartitionedCall/Assert/AssertGuard/pivot_t/_868", "op": "Const", "attr": {"dtype": {"type": "DT_BOOL"}, "value": {"tensor": {"dtype": "DT_BOOL", "tensorShape": {}}}}}, {"name": "StatefulPartitionedCall/Assert/Condition", "op": "Const", "attr": {"value": {"tensor": {"dtype": "DT_BOOL", "tensorShape": {}}}, "dtype": {"type": "DT_BOOL"}}}, {"name": "StatefulPartitionedCall/Scale/Cast", "op": "Const", "attr": {"dtype": {"type": "DT_FLOAT"}, "value": {"tensor": {"dtype": "DT_FLOAT", "tensorShape": {}}}}}, {"name": "StatefulPartitionedCall/Scale/Cast_1", "op": "Const", "attr": {"value": {"tensor": {"dtype": "DT_FLOAT", "tensorShape": {}}}, "dtype": {"type": "DT_FLOAT"}}}, {"name": "StatefulPartitionedCall/Scale/split/split_dim", "op": "Const", "attr": {"dtype": {"type": "DT_INT32"}, "value": {"tensor": {"dtype": "DT_INT32", "tensorShape": {}}}}}, {"name": "ConstantFolding/StatefulPartitionedCall/truediv_1_recip", "op": "Const", "attr": {"value": {"tensor": {"dtype": "DT_FLOAT", "tensorShape": {}}}, "dtype": {"type": "DT_FLOAT"}}}, {"name": "ConstantFolding/StatefulPartitionedCall/truediv_2_recip", "op": "Const", "attr": {"dtype": {"type": "DT_FLOAT"}, "value": {"tensor": {"dtype": "DT_FLOAT", "tensorShape": {}}}}}, {"name": "ConstantFolding/StatefulPartitionedCall/truediv_3_recip", "op": "Const", "attr": {"value": {"tensor": {"dtype": "DT_FLOAT", "tensorShape": {}}}, "dtype": {"type": "DT_FLOAT"}}}, {"name": "unknown_819", "op": "Const", "attr": {"value": {"tensor": {"dtype": "DT_FLOAT", "tensorShape": {"dim": [{"size": "3"}, {"size": "3"}, {"size": "256"}, {"size": "256"}]}}}, "dtype": {"type": "DT_FLOAT"}}}, {"name": "unknown_820", "op": "Const", "attr": {"dtype": {"type": "DT_FLOAT"}, "value": {"tensor": {"dtype": "DT_FLOAT", "tensorShape": {"dim": [{"size": "256"}]}}}}}, {"name": "unknown_821", "op": "Const", "attr": {"value": {"tensor": {"dtype": "DT_FLOAT", "tensorShape": {"dim": [{"size": "1"}, {"size": "1"}, {"size": "256"}, {"size": "2"}]}}}, "dtype": {"type": "DT_FLOAT"}}}, {"name": "unknown_822", "op": "Const", "attr": {"value": {"tensor": {"dtype": "DT_FLOAT", "tensorShape": {"dim": [{"size": "2"}]}}}, "dtype": {"type": "DT_FLOAT"}}}, {"name": "StatefulPartitionedCall/Reshape_4/shape", "op": "Const", "attr": {"dtype": {"type": "DT_INT32"}, "value": {"tensor": {"dtype": "DT_INT32", "tensorShape": {"dim": [{"size": "3"}]}}}}}, {"name": "StatefulPartitionedCall/GatherV2_1/axis", "op": "Const", "attr": {"dtype": {"type": "DT_INT32"}, "value": {"tensor": {"dtype": "DT_INT32", "tensorShape": {}}}}}, {"name": "unknown_811", "op": "Const", "attr": {"value": {"tensor": {"dtype": "DT_FLOAT", "tensorShape": {"dim": [{"size": "3"}, {"size": "3"}, {"size": "256"}, {"size": "256"}]}}}, "dtype": {"type": "DT_FLOAT"}}}, {"name": "unknown_812", "op": "Const", "attr": {"dtype": {"type": "DT_FLOAT"}, "value": {"tensor": {"dtype": "DT_FLOAT", "tensorShape": {"dim": [{"size": "256"}]}}}}}, {"name": "unknown_813", "op": "Const", "attr": {"value": {"tensor": {"dtype": "DT_FLOAT", "tensorShape": {"dim": [{"size": "1"}, {"size": "1"}, {"size": "256"}, {"size": "2"}]}}}, "dtype": {"type": "DT_FLOAT"}}}, {"name": "unknown_814", "op": "Const", "attr": {"value": {"tensor": {"dtype": "DT_FLOAT", "tensorShape": {"dim": [{"size": "2"}]}}}, "dtype": {"type": "DT_FLOAT"}}}, {"name": "StatefulPartitionedCall/Reshape_3/shape", "op": "Const", "attr": {"value": {"tensor": {"dtype": "DT_INT32", "tensorShape": {"dim": [{"size": "3"}]}}}, "dtype": {"type": "DT_INT32"}}}, {"name": "StatefulPartitionedCall/floordiv/y", "op": "Const", "attr": {"dtype": {"type": "DT_INT32"}, "value": {"tensor": {"dtype": "DT_INT32", "tensorShape": {}}}}}, {"name": "StatefulPartitionedCall/floordiv_1/y", "op": "Const", "attr": {"value": {"tensor": {"dtype": "DT_INT32", "tensorShape": {}}}, "dtype": {"type": "DT_INT32"}}}, {"name": "StatefulPartitionedCall/mul_1/y", "op": "Const", "attr": {"value": {"tensor": {"dtype": "DT_INT32", "tensorShape": {}}}, "dtype": {"type": "DT_INT32"}}}, {"name": "StatefulPartitionedCall/center_net_hourglass_feature_extractor/hourglass_network/encoder_decoder_block_5/residual_block_36/batchnorm/batchnorm/sub", "op": "Const", "attr": {"dtype": {"type": "DT_FLOAT"}, "value": {"tensor": {"dtype": "DT_FLOAT", "tensorShape": {"dim": [{"size": "256"}]}}}}}, {"name": "StatefulPartitionedCall/center_net_hourglass_feature_extractor/hourglass_network/encoder_decoder_block_5/residual_block_36/convolutional_block_38/zero_padding2d_38/Pad/paddings", "op": "Const", "attr": {"value": {"tensor": {"dtype": "DT_INT32", "tensorShape": {"dim": [{"size": "4"}, {"size": "2"}]}}}, "dtype": {"type": "DT_INT32"}}}, {"name": "StatefulPartitionedCall/center_net_hourglass_feature_extractor/hourglass_network/encoder_decoder_block_5/residual_block_36/convolutional_block_38/conv2d_82/Conv2D/merged_input", "op": "Const", "attr": {"value": {"tensor": {"dtype": "DT_FLOAT", "tensorShape": {"dim": [{"size": "3"}, {"size": "3"}, {"size": "256"}, {"size": "256"}]}}}, "dtype": {"type": "DT_FLOAT"}}}, {"name": "StatefulPartitionedCall/center_net_hourglass_feature_extractor/hourglass_network/encoder_decoder_block_5/residual_block_36/convolutional_block_38/batchnorm/batchnorm/sub", "op": "Const", "attr": {"dtype": {"type": "DT_FLOAT"}, "value": {"tensor": {"dtype": "DT_FLOAT", "tensorShape": {"dim": [{"size": "256"}]}}}}}, {"name": "StatefulPartitionedCall/center_net_hourglass_feature_extractor/hourglass_network/encoder_decoder_block_5/residual_block_36/conv2d_83/Conv2D/merged_input", "op": "Const", "attr": {"value": {"tensor": {"dtype": "DT_FLOAT", "tensorShape": {"dim": [{"size": "3"}, {"size": "3"}, {"size": "256"}, {"size": "256"}]}}}, "dtype": {"type": "DT_FLOAT"}}}, {"name": "StatefulPartitionedCall/center_net_hourglass_feature_extractor/hourglass_network/encoder_decoder_block_5/residual_block_35/batchnorm/batchnorm/sub", "op": "Const", "attr": {"value": {"tensor": {"dtype": "DT_FLOAT", "tensorShape": {"dim": [{"size": "256"}]}}}, "dtype": {"type": "DT_FLOAT"}}}, {"name": "StatefulPartitionedCall/center_net_hourglass_feature_extractor/hourglass_network/encoder_decoder_block_5/residual_block_35/convolutional_block_37/zero_padding2d_37/Pad/paddings", "op": "Const", "attr": {"value": {"tensor": {"dtype": "DT_INT32", "tensorShape": {"dim": [{"size": "4"}, {"size": "2"}]}}}, "dtype": {"type": "DT_INT32"}}}, {"name": "StatefulPartitionedCall/center_net_hourglass_feature_extractor/hourglass_network/encoder_decoder_block_5/residual_block_35/convolutional_block_37/conv2d_80/Conv2D/merged_input", "op": "Const", "attr": {"dtype": {"type": "DT_FLOAT"}, "value": {"tensor": {"dtype": "DT_FLOAT", "tensorShape": {"dim": [{"size": "3"}, {"size": "3"}, {"size": "256"}, {"size": "256"}]}}}}}, {"name": "StatefulPartitionedCall/center_net_hourglass_feature_extractor/hourglass_network/encoder_decoder_block_5/residual_block_35/convolutional_block_37/batchnorm/batchnorm/sub", "op": "Const", "attr": {"dtype": {"type": "DT_FLOAT"}, "value": {"tensor": {"dtype": "DT_FLOAT", "tensorShape": {"dim": [{"size": "256"}]}}}}}, {"name": "StatefulPartitionedCall/center_net_hourglass_feature_extractor/hourglass_network/encoder_decoder_block_5/residual_block_35/conv2d_81/Conv2D/merged_input", "op": "Const", "attr": {"dtype": {"type": "DT_FLOAT"}, "value": {"tensor": {"dtype": "DT_FLOAT", "tensorShape": {"dim": [{"size": "3"}, {"size": "3"}, {"size": "256"}, {"size": "256"}]}}}}}, {"name": "StatefulPartitionedCall/center_net_hourglass_feature_extractor/hourglass_network/encoder_decoder_block_5/residual_block_68/batchnorm/batchnorm/sub", "op": "Const", "attr": {"value": {"tensor": {"dtype": "DT_FLOAT", "tensorShape": {"dim": [{"size": "256"}]}}}, "dtype": {"type": "DT_FLOAT"}}}, {"name": "StatefulPartitionedCall/center_net_hourglass_feature_extractor/hourglass_network/encoder_decoder_block_5/residual_block_68/convolutional_block_70/zero_padding2d_70/Pad/paddings", "op": "Const", "attr": {"value": {"tensor": {"dtype": "DT_INT32", "tensorShape": {"dim": [{"size": "4"}, {"size": "2"}]}}}, "dtype": {"type": "DT_INT32"}}}, {"name": "StatefulPartitionedCall/center_net_hourglass_feature_extractor/hourglass_network/encoder_decoder_block_5/residual_block_68/convolutional_block_70/conv2d_153/Conv2D/merged_input", "op": "Const", "attr": {"dtype": {"type": "DT_FLOAT"}, "value": {"tensor": {"dtype": "DT_FLOAT", "tensorShape": {"dim": [{"size": "3"}, {"size": "3"}, {"size": "256"}, {"size": "256"}]}}}}}, {"name": "StatefulPartitionedCall/center_net_hourglass_feature_extractor/hourglass_network/encoder_decoder_block_5/residual_block_68/convolutional_block_70/batchnorm/batchnorm/sub", "op": "Const", "attr": {"value": {"tensor": {"dtype": "DT_FLOAT", "tensorShape": {"dim": [{"size": "256"}]}}}, "dtype": {"type": "DT_FLOAT"}}}, {"name": "StatefulPartitionedCall/center_net_hourglass_feature_extractor/hourglass_network/encoder_decoder_block_5/residual_block_68/conv2d_154/Conv2D/merged_input", "op": "Const", "attr": {"dtype": {"type": "DT_FLOAT"}, "value": {"tensor": {"dtype": "DT_FLOAT", "tensorShape": {"dim": [{"size": "3"}, {"size": "3"}, {"size": "256"}, {"size": "256"}]}}}}}, {"name": "StatefulPartitionedCall/center_net_hourglass_feature_extractor/hourglass_network/encoder_decoder_block_5/residual_block_67/batchnorm/batchnorm/sub", "op": "Const", "attr": {"value": {"tensor": {"dtype": "DT_FLOAT", "tensorShape": {"dim": [{"size": "256"}]}}}, "dtype": {"type": "DT_FLOAT"}}}, {"name": "StatefulPartitionedCall/center_net_hourglass_feature_extractor/hourglass_network/encoder_decoder_block_5/residual_block_67/convolutional_block_69/zero_padding2d_69/Pad/paddings", "op": "Const", "attr": {"value": {"tensor": {"dtype": "DT_INT32", "tensorShape": {"dim": [{"size": "4"}, {"size": "2"}]}}}, "dtype": {"type": "DT_INT32"}}}, {"name": "StatefulPartitionedCall/center_net_hourglass_feature_extractor/hourglass_network/encoder_decoder_block_5/residual_block_67/convolutional_block_69/conv2d_151/Conv2D/merged_input", "op": "Const", "attr": {"dtype": {"type": "DT_FLOAT"}, "value": {"tensor": {"dtype": "DT_FLOAT", "tensorShape": {"dim": [{"size": "3"}, {"size": "3"}, {"size": "256"}, {"size": "256"}]}}}}}, {"name": "StatefulPartitionedCall/center_net_hourglass_feature_extractor/hourglass_network/encoder_decoder_block_5/residual_block_67/convolutional_block_69/batchnorm/batchnorm/sub", "op": "Const", "attr": {"value": {"tensor": {"dtype": "DT_FLOAT", "tensorShape": {"dim": [{"size": "256"}]}}}, "dtype": {"type": "DT_FLOAT"}}}, {"name": "StatefulPartitionedCall/center_net_hourglass_feature_extractor/hourglass_network/encoder_decoder_block_5/residual_block_67/conv2d_152/Conv2D/merged_input", "op": "Const", "attr": {"dtype": {"type": "DT_FLOAT"}, "value": {"tensor": {"dtype": "DT_FLOAT", "tensorShape": {"dim": [{"size": "3"}, {"size": "3"}, {"size": "256"}, {"size": "256"}]}}}}}, {"name": "StatefulPartitionedCall/center_net_hourglass_feature_extractor/hourglass_network/encoder_decoder_block_5/encoder_decoder_block_6/residual_block_40/batchnorm/batchnorm/sub", "op": "Const", "attr": {"dtype": {"type": "DT_FLOAT"}, "value": {"tensor": {"dtype": "DT_FLOAT", "tensorShape": {"dim": [{"size": "256"}]}}}}}, {"name": "StatefulPartitionedCall/center_net_hourglass_feature_extractor/hourglass_network/encoder_decoder_block_5/encoder_decoder_block_6/residual_block_40/convolutional_block_42/zero_padding2d_42/Pad/paddings", "op": "Const", "attr": {"dtype": {"type": "DT_INT32"}, "value": {"tensor": {"dtype": "DT_INT32", "tensorShape": {"dim": [{"size": "4"}, {"size": "2"}]}}}}}, {"name": "StatefulPartitionedCall/center_net_hourglass_feature_extractor/hourglass_network/encoder_decoder_block_5/encoder_decoder_block_6/residual_block_40/convolutional_block_42/conv2d_91/Conv2D/merged_input", "op": "Const", "attr": {"value": {"tensor": {"dtype": "DT_FLOAT", "tensorShape": {"dim": [{"size": "3"}, {"size": "3"}, {"size": "256"}, {"size": "256"}]}}}, "dtype": {"type": "DT_FLOAT"}}}, {"name": "StatefulPartitionedCall/center_net_hourglass_feature_extractor/hourglass_network/encoder_decoder_block_5/encoder_decoder_block_6/residual_block_40/convolutional_block_42/batchnorm/batchnorm/sub", "op": "Const", "attr": {"value": {"tensor": {"dtype": "DT_FLOAT", "tensorShape": {"dim": [{"size": "256"}]}}}, "dtype": {"type": "DT_FLOAT"}}}, {"name": "StatefulPartitionedCall/center_net_hourglass_feature_extractor/hourglass_network/encoder_decoder_block_5/encoder_decoder_block_6/residual_block_40/conv2d_92/Conv2D/merged_input", "op": "Const", "attr": {"value": {"tensor": {"dtype": "DT_FLOAT", "tensorShape": {"dim": [{"size": "3"}, {"size": "3"}, {"size": "256"}, {"size": "256"}]}}}, "dtype": {"type": "DT_FLOAT"}}}, {"name": "StatefulPartitionedCall/center_net_hourglass_feature_extractor/hourglass_network/encoder_decoder_block_5/encoder_decoder_block_6/residual_block_39/batchnorm/batchnorm/sub", "op": "Const", "attr": {"value": {"tensor": {"dtype": "DT_FLOAT", "tensorShape": {"dim": [{"size": "256"}]}}}, "dtype": {"type": "DT_FLOAT"}}}, {"name": "StatefulPartitionedCall/center_net_hourglass_feature_extractor/hourglass_network/encoder_decoder_block_5/encoder_decoder_block_6/residual_block_39/convolutional_block_41/zero_padding2d_41/Pad/paddings", "op": "Const", "attr": {"dtype": {"type": "DT_INT32"}, "value": {"tensor": {"dtype": "DT_INT32", "tensorShape": {"dim": [{"size": "4"}, {"size": "2"}]}}}}}, {"name": "StatefulPartitionedCall/center_net_hourglass_feature_extractor/hourglass_network/encoder_decoder_block_5/encoder_decoder_block_6/residual_block_39/convolutional_block_41/conv2d_89/Conv2D/merged_input", "op": "Const", "attr": {"value": {"tensor": {"dtype": "DT_FLOAT", "tensorShape": {"dim": [{"size": "3"}, {"size": "3"}, {"size": "256"}, {"size": "256"}]}}}, "dtype": {"type": "DT_FLOAT"}}}, {"name": "StatefulPartitionedCall/center_net_hourglass_feature_extractor/hourglass_network/encoder_decoder_block_5/encoder_decoder_block_6/residual_block_39/convolutional_block_41/batchnorm/batchnorm/sub", "op": "Const", "attr": {"value": {"tensor": {"dtype": "DT_FLOAT", "tensorShape": {"dim": [{"size": "256"}]}}}, "dtype": {"type": "DT_FLOAT"}}}, {"name": "StatefulPartitionedCall/center_net_hourglass_feature_extractor/hourglass_network/encoder_decoder_block_5/encoder_decoder_block_6/residual_block_39/conv2d_90/Conv2D/merged_input", "op": "Const", "attr": {"value": {"tensor": {"dtype": "DT_FLOAT", "tensorShape": {"dim": [{"size": "3"}, {"size": "3"}, {"size": "256"}, {"size": "256"}]}}}, "dtype": {"type": "DT_FLOAT"}}}, {"name": "StatefulPartitionedCall/center_net_hourglass_feature_extractor/hourglass_network/encoder_decoder_block_5/encoder_decoder_block_6/residual_block_66/ArithmeticOptimizer/AddOpsRewrite_Leaf_0_add", "op": "Const", "attr": {"value": {"tensor": {"dtype": "DT_FLOAT", "tensorShape": {"dim": [{"size": "256"}]}}}, "dtype": {"type": "DT_FLOAT"}}}, {"name": "StatefulPartitionedCall/center_net_hourglass_feature_extractor/hourglass_network/encoder_decoder_block_5/encoder_decoder_block_6/residual_block_66/convolutional_block_68/zero_padding2d_68/Pad/paddings", "op": "Const", "attr": {"value": {"tensor": {"dtype": "DT_INT32", "tensorShape": {"dim": [{"size": "4"}, {"size": "2"}]}}}, "dtype": {"type": "DT_INT32"}}}, {"name": "StatefulPartitionedCall/center_net_hourglass_feature_extractor/hourglass_network/encoder_decoder_block_5/encoder_decoder_block_6/residual_block_66/convolutional_block_68/conv2d_148/Conv2D/merged_input", "op": "Const", "attr": {"value": {"tensor": {"dtype": "DT_FLOAT", "tensorShape": {"dim": [{"size": "3"}, {"size": "3"}, {"size": "384"}, {"size": "256"}]}}}, "dtype": {"type": "DT_FLOAT"}}}, {"name": "StatefulPartitionedCall/center_net_hourglass_feature_extractor/hourglass_network/encoder_decoder_block_5/encoder_decoder_block_6/residual_block_66/convolutional_block_68/batchnorm/batchnorm/sub", "op": "Const", "attr": {"dtype": {"type": "DT_FLOAT"}, "value": {"tensor": {"dtype": "DT_FLOAT", "tensorShape": {"dim": [{"size": "256"}]}}}}}, {"name": "StatefulPartitionedCall/center_net_hourglass_feature_extractor/hourglass_network/encoder_decoder_block_5/encoder_decoder_block_6/residual_block_66/conv2d_149/Conv2D/merged_input", "op": "Const", "attr": {"value": {"tensor": {"dtype": "DT_FLOAT", "tensorShape": {"dim": [{"size": "3"}, {"size": "3"}, {"size": "256"}, {"size": "256"}]}}}, "dtype": {"type": "DT_FLOAT"}}}, {"name": "StatefulPartitionedCall/center_net_hourglass_feature_extractor/hourglass_network/encoder_decoder_block_5/encoder_decoder_block_6/residual_block_65/batchnorm/batchnorm/sub", "op": "Const", "attr": {"value": {"tensor": {"dtype": "DT_FLOAT", "tensorShape": {"dim": [{"size": "384"}]}}}, "dtype": {"type": "DT_FLOAT"}}}, {"name": "StatefulPartitionedCall/center_net_hourglass_feature_extractor/hourglass_network/encoder_decoder_block_5/encoder_decoder_block_6/residual_block_65/convolutional_block_67/zero_padding2d_67/Pad/paddings", "op": "Const", "attr": {"value": {"tensor": {"dtype": "DT_INT32", "tensorShape": {"dim": [{"size": "4"}, {"size": "2"}]}}}, "dtype": {"type": "DT_INT32"}}}, {"name": "StatefulPartitionedCall/center_net_hourglass_feature_extractor/hourglass_network/encoder_decoder_block_5/encoder_decoder_block_6/residual_block_65/convolutional_block_67/conv2d_146/Conv2D/merged_input", "op": "Const", "attr": {"value": {"tensor": {"dtype": "DT_FLOAT", "tensorShape": {"dim": [{"size": "3"}, {"size": "3"}, {"size": "384"}, {"size": "384"}]}}}, "dtype": {"type": "DT_FLOAT"}}}, {"name": "StatefulPartitionedCall/center_net_hourglass_feature_extractor/hourglass_network/encoder_decoder_block_5/encoder_decoder_block_6/residual_block_65/convolutional_block_67/batchnorm/batchnorm/sub", "op": "Const", "attr": {"dtype": {"type": "DT_FLOAT"}, "value": {"tensor": {"dtype": "DT_FLOAT", "tensorShape": {"dim": [{"size": "384"}]}}}}}, {"name": "StatefulPartitionedCall/center_net_hourglass_feature_extractor/hourglass_network/encoder_decoder_block_5/encoder_decoder_block_6/residual_block_65/conv2d_147/Conv2D/merged_input", "op": "Const", "attr": {"value": {"tensor": {"dtype": "DT_FLOAT", "tensorShape": {"dim": [{"size": "3"}, {"size": "3"}, {"size": "384"}, {"size": "384"}]}}}, "dtype": {"type": "DT_FLOAT"}}}, {"name": "StatefulPartitionedCall/center_net_hourglass_feature_extractor/hourglass_network/encoder_decoder_block_5/encoder_decoder_block_6/encoder_decoder_block_7/residual_block_44/batchnorm/batchnorm/sub", "op": "Const", "attr": {"dtype": {"type": "DT_FLOAT"}, "value": {"tensor": {"dtype": "DT_FLOAT", "tensorShape": {"dim": [{"size": "384"}]}}}}}, {"name": "StatefulPartitionedCall/center_net_hourglass_feature_extractor/hourglass_network/encoder_decoder_block_5/encoder_decoder_block_6/encoder_decoder_block_7/residual_block_44/convolutional_block_46/zero_padding2d_46/Pad/paddings", "op": "Const", "attr": {"value": {"tensor": {"dtype": "DT_INT32", "tensorShape": {"dim": [{"size": "4"}, {"size": "2"}]}}}, "dtype": {"type": "DT_INT32"}}}, {"name": "StatefulPartitionedCall/center_net_hourglass_feature_extractor/hourglass_network/encoder_decoder_block_5/encoder_decoder_block_6/encoder_decoder_block_7/residual_block_44/convolutional_block_46/conv2d_100/Conv2D/merged_input", "op": "Const", "attr": {"value": {"tensor": {"dtype": "DT_FLOAT", "tensorShape": {"dim": [{"size": "3"}, {"size": "3"}, {"size": "384"}, {"size": "384"}]}}}, "dtype": {"type": "DT_FLOAT"}}}, {"name": "StatefulPartitionedCall/center_net_hourglass_feature_extractor/hourglass_network/encoder_decoder_block_5/encoder_decoder_block_6/encoder_decoder_block_7/residual_block_44/convolutional_block_46/batchnorm/batchnorm/sub", "op": "Const", "attr": {"value": {"tensor": {"dtype": "DT_FLOAT", "tensorShape": {"dim": [{"size": "384"}]}}}, "dtype": {"type": "DT_FLOAT"}}}, {"name": "StatefulPartitionedCall/center_net_hourglass_feature_extractor/hourglass_network/encoder_decoder_block_5/encoder_decoder_block_6/encoder_decoder_block_7/residual_block_44/conv2d_101/Conv2D/merged_input", "op": "Const", "attr": {"value": {"tensor": {"dtype": "DT_FLOAT", "tensorShape": {"dim": [{"size": "3"}, {"size": "3"}, {"size": "384"}, {"size": "384"}]}}}, "dtype": {"type": "DT_FLOAT"}}}, {"name": "StatefulPartitionedCall/center_net_hourglass_feature_extractor/hourglass_network/encoder_decoder_block_5/encoder_decoder_block_6/encoder_decoder_block_7/residual_block_43/batchnorm/batchnorm/sub", "op": "Const", "attr": {"value": {"tensor": {"dtype": "DT_FLOAT", "tensorShape": {"dim": [{"size": "384"}]}}}, "dtype": {"type": "DT_FLOAT"}}}, {"name": "StatefulPartitionedCall/center_net_hourglass_feature_extractor/hourglass_network/encoder_decoder_block_5/encoder_decoder_block_6/encoder_decoder_block_7/residual_block_43/convolutional_block_45/zero_padding2d_45/Pad/paddings", "op": "Const", "attr": {"value": {"tensor": {"dtype": "DT_INT32", "tensorShape": {"dim": [{"size": "4"}, {"size": "2"}]}}}, "dtype": {"type": "DT_INT32"}}}, {"name": "StatefulPartitionedCall/center_net_hourglass_feature_extractor/hourglass_network/encoder_decoder_block_5/encoder_decoder_block_6/encoder_decoder_block_7/residual_block_43/convolutional_block_45/conv2d_98/Conv2D/merged_input", "op": "Const", "attr": {"dtype": {"type": "DT_FLOAT"}, "value": {"tensor": {"dtype": "DT_FLOAT", "tensorShape": {"dim": [{"size": "3"}, {"size": "3"}, {"size": "384"}, {"size": "384"}]}}}}}, {"name": "StatefulPartitionedCall/center_net_hourglass_feature_extractor/hourglass_network/encoder_decoder_block_5/encoder_decoder_block_6/encoder_decoder_block_7/residual_block_43/convolutional_block_45/batchnorm/batchnorm/sub", "op": "Const", "attr": {"value": {"tensor": {"dtype": "DT_FLOAT", "tensorShape": {"dim": [{"size": "384"}]}}}, "dtype": {"type": "DT_FLOAT"}}}, {"name": "StatefulPartitionedCall/center_net_hourglass_feature_extractor/hourglass_network/encoder_decoder_block_5/encoder_decoder_block_6/encoder_decoder_block_7/residual_block_43/conv2d_99/Conv2D/merged_input", "op": "Const", "attr": {"value": {"tensor": {"dtype": "DT_FLOAT", "tensorShape": {"dim": [{"size": "3"}, {"size": "3"}, {"size": "384"}, {"size": "384"}]}}}, "dtype": {"type": "DT_FLOAT"}}}, {"name": "StatefulPartitionedCall/center_net_hourglass_feature_extractor/hourglass_network/encoder_decoder_block_5/encoder_decoder_block_6/encoder_decoder_block_7/residual_block_64/batchnorm/batchnorm/sub", "op": "Const", "attr": {"dtype": {"type": "DT_FLOAT"}, "value": {"tensor": {"dtype": "DT_FLOAT", "tensorShape": {"dim": [{"size": "384"}]}}}}}, {"name": "StatefulPartitionedCall/center_net_hourglass_feature_extractor/hourglass_network/encoder_decoder_block_5/encoder_decoder_block_6/encoder_decoder_block_7/residual_block_64/convolutional_block_66/zero_padding2d_66/Pad/paddings", "op": "Const", "attr": {"dtype": {"type": "DT_INT32"}, "value": {"tensor": {"dtype": "DT_INT32", "tensorShape": {"dim": [{"size": "4"}, {"size": "2"}]}}}}}, {"name": "StatefulPartitionedCall/center_net_hourglass_feature_extractor/hourglass_network/encoder_decoder_block_5/encoder_decoder_block_6/encoder_decoder_block_7/residual_block_64/convolutional_block_66/conv2d_144/Conv2D/merged_input", "op": "Const", "attr": {"dtype": {"type": "DT_FLOAT"}, "value": {"tensor": {"dtype": "DT_FLOAT", "tensorShape": {"dim": [{"size": "3"}, {"size": "3"}, {"size": "384"}, {"size": "384"}]}}}}}, {"name": "StatefulPartitionedCall/center_net_hourglass_feature_extractor/hourglass_network/encoder_decoder_block_5/encoder_decoder_block_6/encoder_decoder_block_7/residual_block_64/convolutional_block_66/batchnorm/batchnorm/sub", "op": "Const", "attr": {"value": {"tensor": {"dtype": "DT_FLOAT", "tensorShape": {"dim": [{"size": "384"}]}}}, "dtype": {"type": "DT_FLOAT"}}}, {"name": "StatefulPartitionedCall/center_net_hourglass_feature_extractor/hourglass_network/encoder_decoder_block_5/encoder_decoder_block_6/encoder_decoder_block_7/residual_block_64/conv2d_145/Conv2D/merged_input", "op": "Const", "attr": {"value": {"tensor": {"dtype": "DT_FLOAT", "tensorShape": {"dim": [{"size": "3"}, {"size": "3"}, {"size": "384"}, {"size": "384"}]}}}, "dtype": {"type": "DT_FLOAT"}}}, {"name": "StatefulPartitionedCall/center_net_hourglass_feature_extractor/hourglass_network/encoder_decoder_block_5/encoder_decoder_block_6/encoder_decoder_block_7/residual_block_63/batchnorm/batchnorm/sub", "op": "Const", "attr": {"value": {"tensor": {"dtype": "DT_FLOAT", "tensorShape": {"dim": [{"size": "384"}]}}}, "dtype": {"type": "DT_FLOAT"}}}, {"name": "StatefulPartitionedCall/center_net_hourglass_feature_extractor/hourglass_network/encoder_decoder_block_5/encoder_decoder_block_6/encoder_decoder_block_7/residual_block_63/convolutional_block_65/zero_padding2d_65/Pad/paddings", "op": "Const", "attr": {"value": {"tensor": {"dtype": "DT_INT32", "tensorShape": {"dim": [{"size": "4"}, {"size": "2"}]}}}, "dtype": {"type": "DT_INT32"}}}, {"name": "StatefulPartitionedCall/center_net_hourglass_feature_extractor/hourglass_network/encoder_decoder_block_5/encoder_decoder_block_6/encoder_decoder_block_7/residual_block_63/convolutional_block_65/conv2d_142/Conv2D/merged_input", "op": "Const", "attr": {"dtype": {"type": "DT_FLOAT"}, "value": {"tensor": {"dtype": "DT_FLOAT", "tensorShape": {"dim": [{"size": "3"}, {"size": "3"}, {"size": "384"}, {"size": "384"}]}}}}}, {"name": "StatefulPartitionedCall/center_net_hourglass_feature_extractor/hourglass_network/encoder_decoder_block_5/encoder_decoder_block_6/encoder_decoder_block_7/residual_block_63/convolutional_block_65/batchnorm/batchnorm/sub", "op": "Const", "attr": {"value": {"tensor": {"dtype": "DT_FLOAT", "tensorShape": {"dim": [{"size": "384"}]}}}, "dtype": {"type": "DT_FLOAT"}}}, {"name": "StatefulPartitionedCall/center_net_hourglass_feature_extractor/hourglass_network/encoder_decoder_block_5/encoder_decoder_block_6/encoder_decoder_block_7/residual_block_63/conv2d_143/Conv2D/merged_input", "op": "Const", "attr": {"value": {"tensor": {"dtype": "DT_FLOAT", "tensorShape": {"dim": [{"size": "3"}, {"size": "3"}, {"size": "384"}, {"size": "384"}]}}}, "dtype": {"type": "DT_FLOAT"}}}, {"name": "StatefulPartitionedCall/center_net_hourglass_feature_extractor/hourglass_network/encoder_decoder_block_5/encoder_decoder_block_6/encoder_decoder_block_7/encoder_decoder_block_8/residual_block_48/batchnorm/batchnorm/sub", "op": "Const", "attr": {"dtype": {"type": "DT_FLOAT"}, "value": {"tensor": {"dtype": "DT_FLOAT", "tensorShape": {"dim": [{"size": "384"}]}}}}}, {"name": "StatefulPartitionedCall/center_net_hourglass_feature_extractor/hourglass_network/encoder_decoder_block_5/encoder_decoder_block_6/encoder_decoder_block_7/encoder_decoder_block_8/residual_block_48/convolutional_block_50/zero_padding2d_50/Pad/paddings", "op": "Const", "attr": {"dtype": {"type": "DT_INT32"}, "value": {"tensor": {"dtype": "DT_INT32", "tensorShape": {"dim": [{"size": "4"}, {"size": "2"}]}}}}}, {"name": "StatefulPartitionedCall/center_net_hourglass_feature_extractor/hourglass_network/encoder_decoder_block_5/encoder_decoder_block_6/encoder_decoder_block_7/encoder_decoder_block_8/residual_block_48/convolutional_block_50/conv2d_109/Conv2D/merged_input", "op": "Const", "attr": {"dtype": {"type": "DT_FLOAT"}, "value": {"tensor": {"dtype": "DT_FLOAT", "tensorShape": {"dim": [{"size": "3"}, {"size": "3"}, {"size": "384"}, {"size": "384"}]}}}}}, {"name": "StatefulPartitionedCall/center_net_hourglass_feature_extractor/hourglass_network/encoder_decoder_block_5/encoder_decoder_block_6/encoder_decoder_block_7/encoder_decoder_block_8/residual_block_48/convolutional_block_50/batchnorm/batchnorm/sub", "op": "Const", "attr": {"dtype": {"type": "DT_FLOAT"}, "value": {"tensor": {"dtype": "DT_FLOAT", "tensorShape": {"dim": [{"size": "384"}]}}}}}, {"name": "StatefulPartitionedCall/center_net_hourglass_feature_extractor/hourglass_network/encoder_decoder_block_5/encoder_decoder_block_6/encoder_decoder_block_7/encoder_decoder_block_8/residual_block_48/conv2d_110/Conv2D/merged_input", "op": "Const", "attr": {"value": {"tensor": {"dtype": "DT_FLOAT", "tensorShape": {"dim": [{"size": "3"}, {"size": "3"}, {"size": "384"}, {"size": "384"}]}}}, "dtype": {"type": "DT_FLOAT"}}}, {"name": "StatefulPartitionedCall/center_net_hourglass_feature_extractor/hourglass_network/encoder_decoder_block_5/encoder_decoder_block_6/encoder_decoder_block_7/encoder_decoder_block_8/residual_block_47/batchnorm/batchnorm/sub", "op": "Const", "attr": {"dtype": {"type": "DT_FLOAT"}, "value": {"tensor": {"dtype": "DT_FLOAT", "tensorShape": {"dim": [{"size": "384"}]}}}}}, {"name": "StatefulPartitionedCall/center_net_hourglass_feature_extractor/hourglass_network/encoder_decoder_block_5/encoder_decoder_block_6/encoder_decoder_block_7/encoder_decoder_block_8/residual_block_47/convolutional_block_49/zero_padding2d_49/Pad/paddings", "op": "Const", "attr": {"dtype": {"type": "DT_INT32"}, "value": {"tensor": {"dtype": "DT_INT32", "tensorShape": {"dim": [{"size": "4"}, {"size": "2"}]}}}}}, {"name": "StatefulPartitionedCall/center_net_hourglass_feature_extractor/hourglass_network/encoder_decoder_block_5/encoder_decoder_block_6/encoder_decoder_block_7/encoder_decoder_block_8/residual_block_47/convolutional_block_49/conv2d_107/Conv2D/merged_input", "op": "Const", "attr": {"value": {"tensor": {"dtype": "DT_FLOAT", "tensorShape": {"dim": [{"size": "3"}, {"size": "3"}, {"size": "384"}, {"size": "384"}]}}}, "dtype": {"type": "DT_FLOAT"}}}, {"name": "StatefulPartitionedCall/center_net_hourglass_feature_extractor/hourglass_network/encoder_decoder_block_5/encoder_decoder_block_6/encoder_decoder_block_7/encoder_decoder_block_8/residual_block_47/convolutional_block_49/batchnorm/batchnorm/sub", "op": "Const", "attr": {"dtype": {"type": "DT_FLOAT"}, "value": {"tensor": {"dtype": "DT_FLOAT", "tensorShape": {"dim": [{"size": "384"}]}}}}}, {"name": "StatefulPartitionedCall/center_net_hourglass_feature_extractor/hourglass_network/encoder_decoder_block_5/encoder_decoder_block_6/encoder_decoder_block_7/encoder_decoder_block_8/residual_block_47/conv2d_108/Conv2D/merged_input", "op": "Const", "attr": {"dtype": {"type": "DT_FLOAT"}, "value": {"tensor": {"dtype": "DT_FLOAT", "tensorShape": {"dim": [{"size": "3"}, {"size": "3"}, {"size": "384"}, {"size": "384"}]}}}}}, {"name": "StatefulPartitionedCall/center_net_hourglass_feature_extractor/hourglass_network/encoder_decoder_block_5/encoder_decoder_block_6/encoder_decoder_block_7/encoder_decoder_block_8/residual_block_62/batchnorm/batchnorm/sub", "op": "Const", "attr": {"dtype": {"type": "DT_FLOAT"}, "value": {"tensor": {"dtype": "DT_FLOAT", "tensorShape": {"dim": [{"size": "384"}]}}}}}, {"name": "StatefulPartitionedCall/center_net_hourglass_feature_extractor/hourglass_network/encoder_decoder_block_5/encoder_decoder_block_6/encoder_decoder_block_7/encoder_decoder_block_8/residual_block_62/convolutional_block_64/zero_padding2d_64/Pad/paddings", "op": "Const", "attr": {"value": {"tensor": {"dtype": "DT_INT32", "tensorShape": {"dim": [{"size": "4"}, {"size": "2"}]}}}, "dtype": {"type": "DT_INT32"}}}, {"name": "StatefulPartitionedCall/center_net_hourglass_feature_extractor/hourglass_network/encoder_decoder_block_5/encoder_decoder_block_6/encoder_decoder_block_7/encoder_decoder_block_8/residual_block_62/convolutional_block_64/conv2d_140/Conv2D/merged_input", "op": "Const", "attr": {"value": {"tensor": {"dtype": "DT_FLOAT", "tensorShape": {"dim": [{"size": "3"}, {"size": "3"}, {"size": "384"}, {"size": "384"}]}}}, "dtype": {"type": "DT_FLOAT"}}}, {"name": "StatefulPartitionedCall/center_net_hourglass_feature_extractor/hourglass_network/encoder_decoder_block_5/encoder_decoder_block_6/encoder_decoder_block_7/encoder_decoder_block_8/residual_block_62/convolutional_block_64/batchnorm/batchnorm/sub", "op": "Const", "attr": {"value": {"tensor": {"dtype": "DT_FLOAT", "tensorShape": {"dim": [{"size": "384"}]}}}, "dtype": {"type": "DT_FLOAT"}}}, {"name": "StatefulPartitionedCall/center_net_hourglass_feature_extractor/hourglass_network/encoder_decoder_block_5/encoder_decoder_block_6/encoder_decoder_block_7/encoder_decoder_block_8/residual_block_62/conv2d_141/Conv2D/merged_input", "op": "Const", "attr": {"dtype": {"type": "DT_FLOAT"}, "value": {"tensor": {"dtype": "DT_FLOAT", "tensorShape": {"dim": [{"size": "3"}, {"size": "3"}, {"size": "384"}, {"size": "384"}]}}}}}, {"name": "StatefulPartitionedCall/center_net_hourglass_feature_extractor/hourglass_network/encoder_decoder_block_5/encoder_decoder_block_6/encoder_decoder_block_7/encoder_decoder_block_8/residual_block_61/batchnorm/batchnorm/sub", "op": "Const", "attr": {"dtype": {"type": "DT_FLOAT"}, "value": {"tensor": {"dtype": "DT_FLOAT", "tensorShape": {"dim": [{"size": "384"}]}}}}}, {"name": "StatefulPartitionedCall/center_net_hourglass_feature_extractor/hourglass_network/encoder_decoder_block_5/encoder_decoder_block_6/encoder_decoder_block_7/encoder_decoder_block_8/residual_block_61/convolutional_block_63/zero_padding2d_63/Pad/paddings", "op": "Const", "attr": {"dtype": {"type": "DT_INT32"}, "value": {"tensor": {"dtype": "DT_INT32", "tensorShape": {"dim": [{"size": "4"}, {"size": "2"}]}}}}}, {"name": "StatefulPartitionedCall/center_net_hourglass_feature_extractor/hourglass_network/encoder_decoder_block_5/encoder_decoder_block_6/encoder_decoder_block_7/encoder_decoder_block_8/residual_block_61/convolutional_block_63/conv2d_138/Conv2D/merged_input", "op": "Const", "attr": {"value": {"tensor": {"dtype": "DT_FLOAT", "tensorShape": {"dim": [{"size": "3"}, {"size": "3"}, {"size": "384"}, {"size": "384"}]}}}, "dtype": {"type": "DT_FLOAT"}}}, {"name": "StatefulPartitionedCall/center_net_hourglass_feature_extractor/hourglass_network/encoder_decoder_block_5/encoder_decoder_block_6/encoder_decoder_block_7/encoder_decoder_block_8/residual_block_61/convolutional_block_63/batchnorm/batchnorm/sub", "op": "Const", "attr": {"dtype": {"type": "DT_FLOAT"}, "value": {"tensor": {"dtype": "DT_FLOAT", "tensorShape": {"dim": [{"size": "384"}]}}}}}, {"name": "StatefulPartitionedCall/center_net_hourglass_feature_extractor/hourglass_network/encoder_decoder_block_5/encoder_decoder_block_6/encoder_decoder_block_7/encoder_decoder_block_8/residual_block_61/conv2d_139/Conv2D/merged_input", "op": "Const", "attr": {"dtype": {"type": "DT_FLOAT"}, "value": {"tensor": {"dtype": "DT_FLOAT", "tensorShape": {"dim": [{"size": "3"}, {"size": "3"}, {"size": "384"}, {"size": "384"}]}}}}}, {"name": "StatefulPartitionedCall/center_net_hourglass_feature_extractor/hourglass_network/encoder_decoder_block_5/encoder_decoder_block_6/encoder_decoder_block_7/encoder_decoder_block_8/encoder_decoder_block_9/residual_block_52/batchnorm/batchnorm/sub", "op": "Const", "attr": {"value": {"tensor": {"dtype": "DT_FLOAT", "tensorShape": {"dim": [{"size": "384"}]}}}, "dtype": {"type": "DT_FLOAT"}}}, {"name": "StatefulPartitionedCall/center_net_hourglass_feature_extractor/hourglass_network/encoder_decoder_block_5/encoder_decoder_block_6/encoder_decoder_block_7/encoder_decoder_block_8/encoder_decoder_block_9/residual_block_52/convolutional_block_54/zero_padding2d_54/Pad/paddings", "op": "Const", "attr": {"dtype": {"type": "DT_INT32"}, "value": {"tensor": {"dtype": "DT_INT32", "tensorShape": {"dim": [{"size": "4"}, {"size": "2"}]}}}}}, {"name": "StatefulPartitionedCall/center_net_hourglass_feature_extractor/hourglass_network/encoder_decoder_block_5/encoder_decoder_block_6/encoder_decoder_block_7/encoder_decoder_block_8/encoder_decoder_block_9/residual_block_52/convolutional_block_54/conv2d_118/Conv2D/merged_input", "op": "Const", "attr": {"dtype": {"type": "DT_FLOAT"}, "value": {"tensor": {"dtype": "DT_FLOAT", "tensorShape": {"dim": [{"size": "3"}, {"size": "3"}, {"size": "384"}, {"size": "384"}]}}}}}, {"name": "StatefulPartitionedCall/center_net_hourglass_feature_extractor/hourglass_network/encoder_decoder_block_5/encoder_decoder_block_6/encoder_decoder_block_7/encoder_decoder_block_8/encoder_decoder_block_9/residual_block_52/convolutional_block_54/batchnorm/batchnorm/sub", "op": "Const", "attr": {"value": {"tensor": {"dtype": "DT_FLOAT", "tensorShape": {"dim": [{"size": "384"}]}}}, "dtype": {"type": "DT_FLOAT"}}}, {"name": "StatefulPartitionedCall/center_net_hourglass_feature_extractor/hourglass_network/encoder_decoder_block_5/encoder_decoder_block_6/encoder_decoder_block_7/encoder_decoder_block_8/encoder_decoder_block_9/residual_block_52/conv2d_119/Conv2D/merged_input", "op": "Const", "attr": {"value": {"tensor": {"dtype": "DT_FLOAT", "tensorShape": {"dim": [{"size": "3"}, {"size": "3"}, {"size": "384"}, {"size": "384"}]}}}, "dtype": {"type": "DT_FLOAT"}}}, {"name": "StatefulPartitionedCall/center_net_hourglass_feature_extractor/hourglass_network/encoder_decoder_block_5/encoder_decoder_block_6/encoder_decoder_block_7/encoder_decoder_block_8/encoder_decoder_block_9/residual_block_51/batchnorm/batchnorm/sub", "op": "Const", "attr": {"value": {"tensor": {"dtype": "DT_FLOAT", "tensorShape": {"dim": [{"size": "384"}]}}}, "dtype": {"type": "DT_FLOAT"}}}, {"name": "StatefulPartitionedCall/center_net_hourglass_feature_extractor/hourglass_network/encoder_decoder_block_5/encoder_decoder_block_6/encoder_decoder_block_7/encoder_decoder_block_8/encoder_decoder_block_9/residual_block_51/convolutional_block_53/zero_padding2d_53/Pad/paddings", "op": "Const", "attr": {"value": {"tensor": {"dtype": "DT_INT32", "tensorShape": {"dim": [{"size": "4"}, {"size": "2"}]}}}, "dtype": {"type": "DT_INT32"}}}, {"name": "StatefulPartitionedCall/center_net_hourglass_feature_extractor/hourglass_network/encoder_decoder_block_5/encoder_decoder_block_6/encoder_decoder_block_7/encoder_decoder_block_8/encoder_decoder_block_9/residual_block_51/convolutional_block_53/conv2d_116/Conv2D/merged_input", "op": "Const", "attr": {"value": {"tensor": {"dtype": "DT_FLOAT", "tensorShape": {"dim": [{"size": "3"}, {"size": "3"}, {"size": "384"}, {"size": "384"}]}}}, "dtype": {"type": "DT_FLOAT"}}}, {"name": "StatefulPartitionedCall/center_net_hourglass_feature_extractor/hourglass_network/encoder_decoder_block_5/encoder_decoder_block_6/encoder_decoder_block_7/encoder_decoder_block_8/encoder_decoder_block_9/residual_block_51/convolutional_block_53/batchnorm/batchnorm/sub", "op": "Const", "attr": {"value": {"tensor": {"dtype": "DT_FLOAT", "tensorShape": {"dim": [{"size": "384"}]}}}, "dtype": {"type": "DT_FLOAT"}}}, {"name": "StatefulPartitionedCall/center_net_hourglass_feature_extractor/hourglass_network/encoder_decoder_block_5/encoder_decoder_block_6/encoder_decoder_block_7/encoder_decoder_block_8/encoder_decoder_block_9/residual_block_51/conv2d_117/Conv2D/merged_input", "op": "Const", "attr": {"value": {"tensor": {"dtype": "DT_FLOAT", "tensorShape": {"dim": [{"size": "3"}, {"size": "3"}, {"size": "384"}, {"size": "384"}]}}}, "dtype": {"type": "DT_FLOAT"}}}, {"name": "StatefulPartitionedCall/center_net_hourglass_feature_extractor/hourglass_network/encoder_decoder_block_5/encoder_decoder_block_6/encoder_decoder_block_7/encoder_decoder_block_8/encoder_decoder_block_9/residual_block_60/ArithmeticOptimizer/AddOpsRewrite_Leaf_0_add", "op": "Const", "attr": {"dtype": {"type": "DT_FLOAT"}, "value": {"tensor": {"dtype": "DT_FLOAT", "tensorShape": {"dim": [{"size": "384"}]}}}}}, {"name": "StatefulPartitionedCall/center_net_hourglass_feature_extractor/hourglass_network/encoder_decoder_block_5/encoder_decoder_block_6/encoder_decoder_block_7/encoder_decoder_block_8/encoder_decoder_block_9/residual_block_60/convolutional_block_62/zero_padding2d_62/Pad/paddings", "op": "Const", "attr": {"value": {"tensor": {"dtype": "DT_INT32", "tensorShape": {"dim": [{"size": "4"}, {"size": "2"}]}}}, "dtype": {"type": "DT_INT32"}}}, {"name": "StatefulPartitionedCall/center_net_hourglass_feature_extractor/hourglass_network/encoder_decoder_block_5/encoder_decoder_block_6/encoder_decoder_block_7/encoder_decoder_block_8/encoder_decoder_block_9/residual_block_60/convolutional_block_62/conv2d_135/Conv2D/merged_input", "op": "Const", "attr": {"value": {"tensor": {"dtype": "DT_FLOAT", "tensorShape": {"dim": [{"size": "3"}, {"size": "3"}, {"size": "512"}, {"size": "384"}]}}}, "dtype": {"type": "DT_FLOAT"}}}, {"name": "StatefulPartitionedCall/center_net_hourglass_feature_extractor/hourglass_network/encoder_decoder_block_5/encoder_decoder_block_6/encoder_decoder_block_7/encoder_decoder_block_8/encoder_decoder_block_9/residual_block_60/convolutional_block_62/batchnorm/batchnorm/sub", "op": "Const", "attr": {"dtype": {"type": "DT_FLOAT"}, "value": {"tensor": {"dtype": "DT_FLOAT", "tensorShape": {"dim": [{"size": "384"}]}}}}}, {"name": "StatefulPartitionedCall/center_net_hourglass_feature_extractor/hourglass_network/encoder_decoder_block_5/encoder_decoder_block_6/encoder_decoder_block_7/encoder_decoder_block_8/encoder_decoder_block_9/residual_block_60/conv2d_136/Conv2D/merged_input", "op": "Const", "attr": {"value": {"tensor": {"dtype": "DT_FLOAT", "tensorShape": {"dim": [{"size": "3"}, {"size": "3"}, {"size": "384"}, {"size": "384"}]}}}, "dtype": {"type": "DT_FLOAT"}}}, {"name": "StatefulPartitionedCall/center_net_hourglass_feature_extractor/hourglass_network/encoder_decoder_block_5/encoder_decoder_block_6/encoder_decoder_block_7/encoder_decoder_block_8/encoder_decoder_block_9/residual_block_59/batchnorm/batchnorm/sub", "op": "Const", "attr": {"value": {"tensor": {"dtype": "DT_FLOAT", "tensorShape": {"dim": [{"size": "512"}]}}}, "dtype": {"type": "DT_FLOAT"}}}, {"name": "StatefulPartitionedCall/center_net_hourglass_feature_extractor/hourglass_network/encoder_decoder_block_5/encoder_decoder_block_6/encoder_decoder_block_7/encoder_decoder_block_8/encoder_decoder_block_9/residual_block_59/convolutional_block_61/zero_padding2d_61/Pad/paddings", "op": "Const", "attr": {"dtype": {"type": "DT_INT32"}, "value": {"tensor": {"dtype": "DT_INT32", "tensorShape": {"dim": [{"size": "4"}, {"size": "2"}]}}}}}, {"name": "StatefulPartitionedCall/center_net_hourglass_feature_extractor/hourglass_network/encoder_decoder_block_5/encoder_decoder_block_6/encoder_decoder_block_7/encoder_decoder_block_8/encoder_decoder_block_9/residual_block_59/convolutional_block_61/conv2d_133/Conv2D/merged_input", "op": "Const", "attr": {"value": {"tensor": {"dtype": "DT_FLOAT", "tensorShape": {"dim": [{"size": "3"}, {"size": "3"}, {"size": "512"}, {"size": "512"}]}}}, "dtype": {"type": "DT_FLOAT"}}}, {"name": "StatefulPartitionedCall/center_net_hourglass_feature_extractor/hourglass_network/encoder_decoder_block_5/encoder_decoder_block_6/encoder_decoder_block_7/encoder_decoder_block_8/encoder_decoder_block_9/residual_block_59/convolutional_block_61/batchnorm/batchnorm/sub", "op": "Const", "attr": {"value": {"tensor": {"dtype": "DT_FLOAT", "tensorShape": {"dim": [{"size": "512"}]}}}, "dtype": {"type": "DT_FLOAT"}}}, {"name": "StatefulPartitionedCall/center_net_hourglass_feature_extractor/hourglass_network/encoder_decoder_block_5/encoder_decoder_block_6/encoder_decoder_block_7/encoder_decoder_block_8/encoder_decoder_block_9/residual_block_59/conv2d_134/Conv2D/merged_input", "op": "Const", "attr": {"dtype": {"type": "DT_FLOAT"}, "value": {"tensor": {"dtype": "DT_FLOAT", "tensorShape": {"dim": [{"size": "3"}, {"size": "3"}, {"size": "512"}, {"size": "512"}]}}}}}, {"name": "StatefulPartitionedCall/center_net_hourglass_feature_extractor/hourglass_network/encoder_decoder_block_5/encoder_decoder_block_6/encoder_decoder_block_7/encoder_decoder_block_8/encoder_decoder_block_9/residual_block_58/batchnorm/batchnorm/sub", "op": "Const", "attr": {"dtype": {"type": "DT_FLOAT"}, "value": {"tensor": {"dtype": "DT_FLOAT", "tensorShape": {"dim": [{"size": "512"}]}}}}}, {"name": "StatefulPartitionedCall/center_net_hourglass_feature_extractor/hourglass_network/encoder_decoder_block_5/encoder_decoder_block_6/encoder_decoder_block_7/encoder_decoder_block_8/encoder_decoder_block_9/residual_block_58/convolutional_block_60/zero_padding2d_60/Pad/paddings", "op": "Const", "attr": {"value": {"tensor": {"dtype": "DT_INT32", "tensorShape": {"dim": [{"size": "4"}, {"size": "2"}]}}}, "dtype": {"type": "DT_INT32"}}}, {"name": "StatefulPartitionedCall/center_net_hourglass_feature_extractor/hourglass_network/encoder_decoder_block_5/encoder_decoder_block_6/encoder_decoder_block_7/encoder_decoder_block_8/encoder_decoder_block_9/residual_block_58/convolutional_block_60/conv2d_131/Conv2D/merged_input", "op": "Const", "attr": {"dtype": {"type": "DT_FLOAT"}, "value": {"tensor": {"dtype": "DT_FLOAT", "tensorShape": {"dim": [{"size": "3"}, {"size": "3"}, {"size": "512"}, {"size": "512"}]}}}}}, {"name": "StatefulPartitionedCall/center_net_hourglass_feature_extractor/hourglass_network/encoder_decoder_block_5/encoder_decoder_block_6/encoder_decoder_block_7/encoder_decoder_block_8/encoder_decoder_block_9/residual_block_58/convolutional_block_60/batchnorm/batchnorm/sub", "op": "Const", "attr": {"value": {"tensor": {"dtype": "DT_FLOAT", "tensorShape": {"dim": [{"size": "512"}]}}}, "dtype": {"type": "DT_FLOAT"}}}, {"name": "StatefulPartitionedCall/center_net_hourglass_feature_extractor/hourglass_network/encoder_decoder_block_5/encoder_decoder_block_6/encoder_decoder_block_7/encoder_decoder_block_8/encoder_decoder_block_9/residual_block_58/conv2d_132/Conv2D/merged_input", "op": "Const", "attr": {"dtype": {"type": "DT_FLOAT"}, "value": {"tensor": {"dtype": "DT_FLOAT", "tensorShape": {"dim": [{"size": "3"}, {"size": "3"}, {"size": "512"}, {"size": "512"}]}}}}}, {"name": "StatefulPartitionedCall/center_net_hourglass_feature_extractor/hourglass_network/encoder_decoder_block_5/encoder_decoder_block_6/encoder_decoder_block_7/encoder_decoder_block_8/encoder_decoder_block_9/residual_block_57/batchnorm/batchnorm/sub", "op": "Const", "attr": {"dtype": {"type": "DT_FLOAT"}, "value": {"tensor": {"dtype": "DT_FLOAT", "tensorShape": {"dim": [{"size": "512"}]}}}}}, {"name": "StatefulPartitionedCall/center_net_hourglass_feature_extractor/hourglass_network/encoder_decoder_block_5/encoder_decoder_block_6/encoder_decoder_block_7/encoder_decoder_block_8/encoder_decoder_block_9/residual_block_57/convolutional_block_59/zero_padding2d_59/Pad/paddings", "op": "Const", "attr": {"dtype": {"type": "DT_INT32"}, "value": {"tensor": {"dtype": "DT_INT32", "tensorShape": {"dim": [{"size": "4"}, {"size": "2"}]}}}}}, {"name": "StatefulPartitionedCall/center_net_hourglass_feature_extractor/hourglass_network/encoder_decoder_block_5/encoder_decoder_block_6/encoder_decoder_block_7/encoder_decoder_block_8/encoder_decoder_block_9/residual_block_57/convolutional_block_59/conv2d_129/Conv2D/merged_input", "op": "Const", "attr": {"value": {"tensor": {"dtype": "DT_FLOAT", "tensorShape": {"dim": [{"size": "3"}, {"size": "3"}, {"size": "512"}, {"size": "512"}]}}}, "dtype": {"type": "DT_FLOAT"}}}, {"name": "StatefulPartitionedCall/center_net_hourglass_feature_extractor/hourglass_network/encoder_decoder_block_5/encoder_decoder_block_6/encoder_decoder_block_7/encoder_decoder_block_8/encoder_decoder_block_9/residual_block_57/convolutional_block_59/batchnorm/batchnorm/sub", "op": "Const", "attr": {"dtype": {"type": "DT_FLOAT"}, "value": {"tensor": {"dtype": "DT_FLOAT", "tensorShape": {"dim": [{"size": "512"}]}}}}}, {"name": "StatefulPartitionedCall/center_net_hourglass_feature_extractor/hourglass_network/encoder_decoder_block_5/encoder_decoder_block_6/encoder_decoder_block_7/encoder_decoder_block_8/encoder_decoder_block_9/residual_block_57/conv2d_130/Conv2D/merged_input", "op": "Const", "attr": {"value": {"tensor": {"dtype": "DT_FLOAT", "tensorShape": {"dim": [{"size": "3"}, {"size": "3"}, {"size": "512"}, {"size": "512"}]}}}, "dtype": {"type": "DT_FLOAT"}}}, {"name": "StatefulPartitionedCall/center_net_hourglass_feature_extractor/hourglass_network/encoder_decoder_block_5/encoder_decoder_block_6/encoder_decoder_block_7/encoder_decoder_block_8/encoder_decoder_block_9/residual_block_56/batchnorm/batchnorm/sub", "op": "Const", "attr": {"dtype": {"type": "DT_FLOAT"}, "value": {"tensor": {"dtype": "DT_FLOAT", "tensorShape": {"dim": [{"size": "512"}]}}}}}, {"name": "StatefulPartitionedCall/center_net_hourglass_feature_extractor/hourglass_network/encoder_decoder_block_5/encoder_decoder_block_6/encoder_decoder_block_7/encoder_decoder_block_8/encoder_decoder_block_9/residual_block_56/convolutional_block_58/zero_padding2d_58/Pad/paddings", "op": "Const", "attr": {"dtype": {"type": "DT_INT32"}, "value": {"tensor": {"dtype": "DT_INT32", "tensorShape": {"dim": [{"size": "4"}, {"size": "2"}]}}}}}, {"name": "StatefulPartitionedCall/center_net_hourglass_feature_extractor/hourglass_network/encoder_decoder_block_5/encoder_decoder_block_6/encoder_decoder_block_7/encoder_decoder_block_8/encoder_decoder_block_9/residual_block_56/convolutional_block_58/conv2d_127/Conv2D/merged_input", "op": "Const", "attr": {"dtype": {"type": "DT_FLOAT"}, "value": {"tensor": {"dtype": "DT_FLOAT", "tensorShape": {"dim": [{"size": "3"}, {"size": "3"}, {"size": "512"}, {"size": "512"}]}}}}}, {"name": "StatefulPartitionedCall/center_net_hourglass_feature_extractor/hourglass_network/encoder_decoder_block_5/encoder_decoder_block_6/encoder_decoder_block_7/encoder_decoder_block_8/encoder_decoder_block_9/residual_block_56/convolutional_block_58/batchnorm/batchnorm/sub", "op": "Const", "attr": {"value": {"tensor": {"dtype": "DT_FLOAT", "tensorShape": {"dim": [{"size": "512"}]}}}, "dtype": {"type": "DT_FLOAT"}}}, {"name": "StatefulPartitionedCall/center_net_hourglass_feature_extractor/hourglass_network/encoder_decoder_block_5/encoder_decoder_block_6/encoder_decoder_block_7/encoder_decoder_block_8/encoder_decoder_block_9/residual_block_56/conv2d_128/Conv2D/merged_input", "op": "Const", "attr": {"value": {"tensor": {"dtype": "DT_FLOAT", "tensorShape": {"dim": [{"size": "3"}, {"size": "3"}, {"size": "512"}, {"size": "512"}]}}}, "dtype": {"type": "DT_FLOAT"}}}, {"name": "StatefulPartitionedCall/center_net_hourglass_feature_extractor/hourglass_network/encoder_decoder_block_5/encoder_decoder_block_6/encoder_decoder_block_7/encoder_decoder_block_8/encoder_decoder_block_9/residual_block_55/batchnorm/batchnorm/sub", "op": "Const", "attr": {"value": {"tensor": {"dtype": "DT_FLOAT", "tensorShape": {"dim": [{"size": "512"}]}}}, "dtype": {"type": "DT_FLOAT"}}}, {"name": "StatefulPartitionedCall/center_net_hourglass_feature_extractor/hourglass_network/encoder_decoder_block_5/encoder_decoder_block_6/encoder_decoder_block_7/encoder_decoder_block_8/encoder_decoder_block_9/residual_block_55/convolutional_block_57/zero_padding2d_57/Pad/paddings", "op": "Const", "attr": {"dtype": {"type": "DT_INT32"}, "value": {"tensor": {"dtype": "DT_INT32", "tensorShape": {"dim": [{"size": "4"}, {"size": "2"}]}}}}}, {"name": "StatefulPartitionedCall/center_net_hourglass_feature_extractor/hourglass_network/encoder_decoder_block_5/encoder_decoder_block_6/encoder_decoder_block_7/encoder_decoder_block_8/encoder_decoder_block_9/residual_block_55/convolutional_block_57/conv2d_125/Conv2D/merged_input", "op": "Const", "attr": {"value": {"tensor": {"dtype": "DT_FLOAT", "tensorShape": {"dim": [{"size": "3"}, {"size": "3"}, {"size": "512"}, {"size": "512"}]}}}, "dtype": {"type": "DT_FLOAT"}}}, {"name": "StatefulPartitionedCall/center_net_hourglass_feature_extractor/hourglass_network/encoder_decoder_block_5/encoder_decoder_block_6/encoder_decoder_block_7/encoder_decoder_block_8/encoder_decoder_block_9/residual_block_55/convolutional_block_57/batchnorm/batchnorm/sub", "op": "Const", "attr": {"value": {"tensor": {"dtype": "DT_FLOAT", "tensorShape": {"dim": [{"size": "512"}]}}}, "dtype": {"type": "DT_FLOAT"}}}, {"name": "StatefulPartitionedCall/center_net_hourglass_feature_extractor/hourglass_network/encoder_decoder_block_5/encoder_decoder_block_6/encoder_decoder_block_7/encoder_decoder_block_8/encoder_decoder_block_9/residual_block_55/conv2d_126/Conv2D/merged_input", "op": "Const", "attr": {"value": {"tensor": {"dtype": "DT_FLOAT", "tensorShape": {"dim": [{"size": "3"}, {"size": "3"}, {"size": "512"}, {"size": "512"}]}}}, "dtype": {"type": "DT_FLOAT"}}}, {"name": "StatefulPartitionedCall/center_net_hourglass_feature_extractor/hourglass_network/encoder_decoder_block_5/encoder_decoder_block_6/encoder_decoder_block_7/encoder_decoder_block_8/encoder_decoder_block_9/residual_block_54/batchnorm/batchnorm/sub", "op": "Const", "attr": {"dtype": {"type": "DT_FLOAT"}, "value": {"tensor": {"dtype": "DT_FLOAT", "tensorShape": {"dim": [{"size": "512"}]}}}}}, {"name": "StatefulPartitionedCall/center_net_hourglass_feature_extractor/hourglass_network/encoder_decoder_block_5/encoder_decoder_block_6/encoder_decoder_block_7/encoder_decoder_block_8/encoder_decoder_block_9/residual_block_54/convolutional_block_56/zero_padding2d_56/Pad/paddings", "op": "Const", "attr": {"value": {"tensor": {"dtype": "DT_INT32", "tensorShape": {"dim": [{"size": "4"}, {"size": "2"}]}}}, "dtype": {"type": "DT_INT32"}}}, {"name": "StatefulPartitionedCall/center_net_hourglass_feature_extractor/hourglass_network/encoder_decoder_block_5/encoder_decoder_block_6/encoder_decoder_block_7/encoder_decoder_block_8/encoder_decoder_block_9/residual_block_54/convolutional_block_56/conv2d_123/Conv2D/merged_input", "op": "Const", "attr": {"value": {"tensor": {"dtype": "DT_FLOAT", "tensorShape": {"dim": [{"size": "3"}, {"size": "3"}, {"size": "512"}, {"size": "512"}]}}}, "dtype": {"type": "DT_FLOAT"}}}, {"name": "StatefulPartitionedCall/center_net_hourglass_feature_extractor/hourglass_network/encoder_decoder_block_5/encoder_decoder_block_6/encoder_decoder_block_7/encoder_decoder_block_8/encoder_decoder_block_9/residual_block_54/convolutional_block_56/batchnorm/batchnorm/sub", "op": "Const", "attr": {"value": {"tensor": {"dtype": "DT_FLOAT", "tensorShape": {"dim": [{"size": "512"}]}}}, "dtype": {"type": "DT_FLOAT"}}}, {"name": "StatefulPartitionedCall/center_net_hourglass_feature_extractor/hourglass_network/encoder_decoder_block_5/encoder_decoder_block_6/encoder_decoder_block_7/encoder_decoder_block_8/encoder_decoder_block_9/residual_block_54/conv2d_124/Conv2D/merged_input", "op": "Const", "attr": {"dtype": {"type": "DT_FLOAT"}, "value": {"tensor": {"dtype": "DT_FLOAT", "tensorShape": {"dim": [{"size": "3"}, {"size": "3"}, {"size": "512"}, {"size": "512"}]}}}}}, {"name": "StatefulPartitionedCall/center_net_hourglass_feature_extractor/hourglass_network/encoder_decoder_block_5/encoder_decoder_block_6/encoder_decoder_block_7/encoder_decoder_block_8/encoder_decoder_block_9/residual_block_53/ArithmeticOptimizer/AddOpsRewrite_Leaf_0_add", "op": "Const", "attr": {"value": {"tensor": {"dtype": "DT_FLOAT", "tensorShape": {"dim": [{"size": "512"}]}}}, "dtype": {"type": "DT_FLOAT"}}}, {"name": "StatefulPartitionedCall/center_net_hourglass_feature_extractor/hourglass_network/encoder_decoder_block_5/encoder_decoder_block_6/encoder_decoder_block_7/encoder_decoder_block_8/encoder_decoder_block_9/residual_block_53/convolutional_block_55/zero_padding2d_55/Pad/paddings", "op": "Const", "attr": {"dtype": {"type": "DT_INT32"}, "value": {"tensor": {"dtype": "DT_INT32", "tensorShape": {"dim": [{"size": "4"}, {"size": "2"}]}}}}}, {"name": "StatefulPartitionedCall/center_net_hourglass_feature_extractor/hourglass_network/encoder_decoder_block_5/encoder_decoder_block_6/encoder_decoder_block_7/encoder_decoder_block_8/encoder_decoder_block_9/residual_block_53/convolutional_block_55/conv2d_120/Conv2D/merged_input", "op": "Const", "attr": {"dtype": {"type": "DT_FLOAT"}, "value": {"tensor": {"dtype": "DT_FLOAT", "tensorShape": {"dim": [{"size": "3"}, {"size": "3"}, {"size": "384"}, {"size": "512"}]}}}}}, {"name": "StatefulPartitionedCall/center_net_hourglass_feature_extractor/hourglass_network/encoder_decoder_block_5/encoder_decoder_block_6/encoder_decoder_block_7/encoder_decoder_block_8/encoder_decoder_block_9/residual_block_53/convolutional_block_55/batchnorm/batchnorm/sub", "op": "Const", "attr": {"value": {"tensor": {"dtype": "DT_FLOAT", "tensorShape": {"dim": [{"size": "512"}]}}}, "dtype": {"type": "DT_FLOAT"}}}, {"name": "StatefulPartitionedCall/center_net_hourglass_feature_extractor/hourglass_network/encoder_decoder_block_5/encoder_decoder_block_6/encoder_decoder_block_7/encoder_decoder_block_8/encoder_decoder_block_9/residual_block_53/conv2d_121/Conv2D/merged_input", "op": "Const", "attr": {"dtype": {"type": "DT_FLOAT"}, "value": {"tensor": {"dtype": "DT_FLOAT", "tensorShape": {"dim": [{"size": "3"}, {"size": "3"}, {"size": "512"}, {"size": "512"}]}}}}}, {"name": "StatefulPartitionedCall/center_net_hourglass_feature_extractor/hourglass_network/encoder_decoder_block_5/encoder_decoder_block_6/encoder_decoder_block_7/encoder_decoder_block_8/residual_block_50/batchnorm/batchnorm/sub", "op": "Const", "attr": {"value": {"tensor": {"dtype": "DT_FLOAT", "tensorShape": {"dim": [{"size": "384"}]}}}, "dtype": {"type": "DT_FLOAT"}}}, {"name": "StatefulPartitionedCall/center_net_hourglass_feature_extractor/hourglass_network/encoder_decoder_block_5/encoder_decoder_block_6/encoder_decoder_block_7/encoder_decoder_block_8/residual_block_50/convolutional_block_52/zero_padding2d_52/Pad/paddings", "op": "Const", "attr": {"value": {"tensor": {"dtype": "DT_INT32", "tensorShape": {"dim": [{"size": "4"}, {"size": "2"}]}}}, "dtype": {"type": "DT_INT32"}}}, {"name": "StatefulPartitionedCall/center_net_hourglass_feature_extractor/hourglass_network/encoder_decoder_block_5/encoder_decoder_block_6/encoder_decoder_block_7/encoder_decoder_block_8/residual_block_50/convolutional_block_52/conv2d_114/Conv2D/merged_input", "op": "Const", "attr": {"value": {"tensor": {"dtype": "DT_FLOAT", "tensorShape": {"dim": [{"size": "3"}, {"size": "3"}, {"size": "384"}, {"size": "384"}]}}}, "dtype": {"type": "DT_FLOAT"}}}, {"name": "StatefulPartitionedCall/center_net_hourglass_feature_extractor/hourglass_network/encoder_decoder_block_5/encoder_decoder_block_6/encoder_decoder_block_7/encoder_decoder_block_8/residual_block_50/convolutional_block_52/batchnorm/batchnorm/sub", "op": "Const", "attr": {"value": {"tensor": {"dtype": "DT_FLOAT", "tensorShape": {"dim": [{"size": "384"}]}}}, "dtype": {"type": "DT_FLOAT"}}}, {"name": "StatefulPartitionedCall/center_net_hourglass_feature_extractor/hourglass_network/encoder_decoder_block_5/encoder_decoder_block_6/encoder_decoder_block_7/encoder_decoder_block_8/residual_block_50/conv2d_115/Conv2D/merged_input", "op": "Const", "attr": {"value": {"tensor": {"dtype": "DT_FLOAT", "tensorShape": {"dim": [{"size": "3"}, {"size": "3"}, {"size": "384"}, {"size": "384"}]}}}, "dtype": {"type": "DT_FLOAT"}}}, {"name": "StatefulPartitionedCall/center_net_hourglass_feature_extractor/hourglass_network/encoder_decoder_block_5/encoder_decoder_block_6/encoder_decoder_block_7/encoder_decoder_block_8/residual_block_49/ArithmeticOptimizer/AddOpsRewrite_Leaf_0_add", "op": "Const", "attr": {"value": {"tensor": {"dtype": "DT_FLOAT", "tensorShape": {"dim": [{"size": "384"}]}}}, "dtype": {"type": "DT_FLOAT"}}}, {"name": "StatefulPartitionedCall/center_net_hourglass_feature_extractor/hourglass_network/encoder_decoder_block_5/encoder_decoder_block_6/encoder_decoder_block_7/encoder_decoder_block_8/residual_block_49/convolutional_block_51/zero_padding2d_51/Pad/paddings", "op": "Const", "attr": {"value": {"tensor": {"dtype": "DT_INT32", "tensorShape": {"dim": [{"size": "4"}, {"size": "2"}]}}}, "dtype": {"type": "DT_INT32"}}}, {"name": "StatefulPartitionedCall/center_net_hourglass_feature_extractor/hourglass_network/encoder_decoder_block_5/encoder_decoder_block_6/encoder_decoder_block_7/encoder_decoder_block_8/residual_block_49/convolutional_block_51/conv2d_111/Conv2D/merged_input", "op": "Const", "attr": {"value": {"tensor": {"dtype": "DT_FLOAT", "tensorShape": {"dim": [{"size": "3"}, {"size": "3"}, {"size": "384"}, {"size": "384"}]}}}, "dtype": {"type": "DT_FLOAT"}}}, {"name": "StatefulPartitionedCall/center_net_hourglass_feature_extractor/hourglass_network/encoder_decoder_block_5/encoder_decoder_block_6/encoder_decoder_block_7/encoder_decoder_block_8/residual_block_49/convolutional_block_51/batchnorm/batchnorm/sub", "op": "Const", "attr": {"value": {"tensor": {"dtype": "DT_FLOAT", "tensorShape": {"dim": [{"size": "384"}]}}}, "dtype": {"type": "DT_FLOAT"}}}, {"name": "StatefulPartitionedCall/center_net_hourglass_feature_extractor/hourglass_network/encoder_decoder_block_5/encoder_decoder_block_6/encoder_decoder_block_7/encoder_decoder_block_8/residual_block_49/conv2d_112/Conv2D/merged_input", "op": "Const", "attr": {"value": {"tensor": {"dtype": "DT_FLOAT", "tensorShape": {"dim": [{"size": "3"}, {"size": "3"}, {"size": "384"}, {"size": "384"}]}}}, "dtype": {"type": "DT_FLOAT"}}}, {"name": "StatefulPartitionedCall/center_net_hourglass_feature_extractor/hourglass_network/encoder_decoder_block_5/encoder_decoder_block_6/encoder_decoder_block_7/residual_block_46/batchnorm/batchnorm/sub", "op": "Const", "attr": {"value": {"tensor": {"dtype": "DT_FLOAT", "tensorShape": {"dim": [{"size": "384"}]}}}, "dtype": {"type": "DT_FLOAT"}}}, {"name": "StatefulPartitionedCall/center_net_hourglass_feature_extractor/hourglass_network/encoder_decoder_block_5/encoder_decoder_block_6/encoder_decoder_block_7/residual_block_46/convolutional_block_48/zero_padding2d_48/Pad/paddings", "op": "Const", "attr": {"value": {"tensor": {"dtype": "DT_INT32", "tensorShape": {"dim": [{"size": "4"}, {"size": "2"}]}}}, "dtype": {"type": "DT_INT32"}}}, {"name": "StatefulPartitionedCall/center_net_hourglass_feature_extractor/hourglass_network/encoder_decoder_block_5/encoder_decoder_block_6/encoder_decoder_block_7/residual_block_46/convolutional_block_48/conv2d_105/Conv2D/merged_input", "op": "Const", "attr": {"dtype": {"type": "DT_FLOAT"}, "value": {"tensor": {"dtype": "DT_FLOAT", "tensorShape": {"dim": [{"size": "3"}, {"size": "3"}, {"size": "384"}, {"size": "384"}]}}}}}, {"name": "StatefulPartitionedCall/center_net_hourglass_feature_extractor/hourglass_network/encoder_decoder_block_5/encoder_decoder_block_6/encoder_decoder_block_7/residual_block_46/convolutional_block_48/batchnorm/batchnorm/sub", "op": "Const", "attr": {"value": {"tensor": {"dtype": "DT_FLOAT", "tensorShape": {"dim": [{"size": "384"}]}}}, "dtype": {"type": "DT_FLOAT"}}}, {"name": "StatefulPartitionedCall/center_net_hourglass_feature_extractor/hourglass_network/encoder_decoder_block_5/encoder_decoder_block_6/encoder_decoder_block_7/residual_block_46/conv2d_106/Conv2D/merged_input", "op": "Const", "attr": {"value": {"tensor": {"dtype": "DT_FLOAT", "tensorShape": {"dim": [{"size": "3"}, {"size": "3"}, {"size": "384"}, {"size": "384"}]}}}, "dtype": {"type": "DT_FLOAT"}}}, {"name": "StatefulPartitionedCall/center_net_hourglass_feature_extractor/hourglass_network/encoder_decoder_block_5/encoder_decoder_block_6/encoder_decoder_block_7/residual_block_45/ArithmeticOptimizer/AddOpsRewrite_Leaf_0_add", "op": "Const", "attr": {"dtype": {"type": "DT_FLOAT"}, "value": {"tensor": {"dtype": "DT_FLOAT", "tensorShape": {"dim": [{"size": "384"}]}}}}}, {"name": "StatefulPartitionedCall/center_net_hourglass_feature_extractor/hourglass_network/encoder_decoder_block_5/encoder_decoder_block_6/encoder_decoder_block_7/residual_block_45/convolutional_block_47/zero_padding2d_47/Pad/paddings", "op": "Const", "attr": {"dtype": {"type": "DT_INT32"}, "value": {"tensor": {"dtype": "DT_INT32", "tensorShape": {"dim": [{"size": "4"}, {"size": "2"}]}}}}}, {"name": "StatefulPartitionedCall/center_net_hourglass_feature_extractor/hourglass_network/encoder_decoder_block_5/encoder_decoder_block_6/encoder_decoder_block_7/residual_block_45/convolutional_block_47/conv2d_102/Conv2D/merged_input", "op": "Const", "attr": {"value": {"tensor": {"dtype": "DT_FLOAT", "tensorShape": {"dim": [{"size": "3"}, {"size": "3"}, {"size": "384"}, {"size": "384"}]}}}, "dtype": {"type": "DT_FLOAT"}}}, {"name": "StatefulPartitionedCall/center_net_hourglass_feature_extractor/hourglass_network/encoder_decoder_block_5/encoder_decoder_block_6/encoder_decoder_block_7/residual_block_45/convolutional_block_47/batchnorm/batchnorm/sub", "op": "Const", "attr": {"dtype": {"type": "DT_FLOAT"}, "value": {"tensor": {"dtype": "DT_FLOAT", "tensorShape": {"dim": [{"size": "384"}]}}}}}, {"name": "StatefulPartitionedCall/center_net_hourglass_feature_extractor/hourglass_network/encoder_decoder_block_5/encoder_decoder_block_6/encoder_decoder_block_7/residual_block_45/conv2d_103/Conv2D/merged_input", "op": "Const", "attr": {"dtype": {"type": "DT_FLOAT"}, "value": {"tensor": {"dtype": "DT_FLOAT", "tensorShape": {"dim": [{"size": "3"}, {"size": "3"}, {"size": "384"}, {"size": "384"}]}}}}}, {"name": "StatefulPartitionedCall/center_net_hourglass_feature_extractor/hourglass_network/encoder_decoder_block_5/encoder_decoder_block_6/residual_block_42/batchnorm/batchnorm/sub", "op": "Const", "attr": {"value": {"tensor": {"dtype": "DT_FLOAT", "tensorShape": {"dim": [{"size": "384"}]}}}, "dtype": {"type": "DT_FLOAT"}}}, {"name": "StatefulPartitionedCall/center_net_hourglass_feature_extractor/hourglass_network/encoder_decoder_block_5/encoder_decoder_block_6/residual_block_42/convolutional_block_44/zero_padding2d_44/Pad/paddings", "op": "Const", "attr": {"value": {"tensor": {"dtype": "DT_INT32", "tensorShape": {"dim": [{"size": "4"}, {"size": "2"}]}}}, "dtype": {"type": "DT_INT32"}}}, {"name": "StatefulPartitionedCall/center_net_hourglass_feature_extractor/hourglass_network/encoder_decoder_block_5/encoder_decoder_block_6/residual_block_42/convolutional_block_44/conv2d_96/Conv2D/merged_input", "op": "Const", "attr": {"dtype": {"type": "DT_FLOAT"}, "value": {"tensor": {"dtype": "DT_FLOAT", "tensorShape": {"dim": [{"size": "3"}, {"size": "3"}, {"size": "384"}, {"size": "384"}]}}}}}, {"name": "StatefulPartitionedCall/center_net_hourglass_feature_extractor/hourglass_network/encoder_decoder_block_5/encoder_decoder_block_6/residual_block_42/convolutional_block_44/batchnorm/batchnorm/sub", "op": "Const", "attr": {"dtype": {"type": "DT_FLOAT"}, "value": {"tensor": {"dtype": "DT_FLOAT", "tensorShape": {"dim": [{"size": "384"}]}}}}}, {"name": "StatefulPartitionedCall/center_net_hourglass_feature_extractor/hourglass_network/encoder_decoder_block_5/encoder_decoder_block_6/residual_block_42/conv2d_97/Conv2D/merged_input", "op": "Const", "attr": {"value": {"tensor": {"dtype": "DT_FLOAT", "tensorShape": {"dim": [{"size": "3"}, {"size": "3"}, {"size": "384"}, {"size": "384"}]}}}, "dtype": {"type": "DT_FLOAT"}}}, {"name": "StatefulPartitionedCall/center_net_hourglass_feature_extractor/hourglass_network/encoder_decoder_block_5/encoder_decoder_block_6/residual_block_41/ArithmeticOptimizer/AddOpsRewrite_Leaf_0_add", "op": "Const", "attr": {"dtype": {"type": "DT_FLOAT"}, "value": {"tensor": {"dtype": "DT_FLOAT", "tensorShape": {"dim": [{"size": "384"}]}}}}}, {"name": "StatefulPartitionedCall/center_net_hourglass_feature_extractor/hourglass_network/encoder_decoder_block_5/encoder_decoder_block_6/residual_block_41/convolutional_block_43/zero_padding2d_43/Pad/paddings", "op": "Const", "attr": {"dtype": {"type": "DT_INT32"}, "value": {"tensor": {"dtype": "DT_INT32", "tensorShape": {"dim": [{"size": "4"}, {"size": "2"}]}}}}}, {"name": "StatefulPartitionedCall/center_net_hourglass_feature_extractor/hourglass_network/encoder_decoder_block_5/encoder_decoder_block_6/residual_block_41/convolutional_block_43/conv2d_93/Conv2D/merged_input", "op": "Const", "attr": {"value": {"tensor": {"dtype": "DT_FLOAT", "tensorShape": {"dim": [{"size": "3"}, {"size": "3"}, {"size": "256"}, {"size": "384"}]}}}, "dtype": {"type": "DT_FLOAT"}}}, {"name": "StatefulPartitionedCall/center_net_hourglass_feature_extractor/hourglass_network/encoder_decoder_block_5/encoder_decoder_block_6/residual_block_41/convolutional_block_43/batchnorm/batchnorm/sub", "op": "Const", "attr": {"value": {"tensor": {"dtype": "DT_FLOAT", "tensorShape": {"dim": [{"size": "384"}]}}}, "dtype": {"type": "DT_FLOAT"}}}, {"name": "StatefulPartitionedCall/center_net_hourglass_feature_extractor/hourglass_network/encoder_decoder_block_5/encoder_decoder_block_6/residual_block_41/conv2d_94/Conv2D/merged_input", "op": "Const", "attr": {"value": {"tensor": {"dtype": "DT_FLOAT", "tensorShape": {"dim": [{"size": "3"}, {"size": "3"}, {"size": "384"}, {"size": "384"}]}}}, "dtype": {"type": "DT_FLOAT"}}}, {"name": "StatefulPartitionedCall/center_net_hourglass_feature_extractor/hourglass_network/encoder_decoder_block_5/residual_block_38/batchnorm/batchnorm/sub", "op": "Const", "attr": {"dtype": {"type": "DT_FLOAT"}, "value": {"tensor": {"dtype": "DT_FLOAT", "tensorShape": {"dim": [{"size": "256"}]}}}}}, {"name": "StatefulPartitionedCall/center_net_hourglass_feature_extractor/hourglass_network/encoder_decoder_block_5/residual_block_38/convolutional_block_40/zero_padding2d_40/Pad/paddings", "op": "Const", "attr": {"value": {"tensor": {"dtype": "DT_INT32", "tensorShape": {"dim": [{"size": "4"}, {"size": "2"}]}}}, "dtype": {"type": "DT_INT32"}}}, {"name": "StatefulPartitionedCall/center_net_hourglass_feature_extractor/hourglass_network/encoder_decoder_block_5/residual_block_38/convolutional_block_40/conv2d_87/Conv2D/merged_input", "op": "Const", "attr": {"dtype": {"type": "DT_FLOAT"}, "value": {"tensor": {"dtype": "DT_FLOAT", "tensorShape": {"dim": [{"size": "3"}, {"size": "3"}, {"size": "256"}, {"size": "256"}]}}}}}, {"name": "StatefulPartitionedCall/center_net_hourglass_feature_extractor/hourglass_network/encoder_decoder_block_5/residual_block_38/convolutional_block_40/batchnorm/batchnorm/sub", "op": "Const", "attr": {"dtype": {"type": "DT_FLOAT"}, "value": {"tensor": {"dtype": "DT_FLOAT", "tensorShape": {"dim": [{"size": "256"}]}}}}}, {"name": "StatefulPartitionedCall/center_net_hourglass_feature_extractor/hourglass_network/encoder_decoder_block_5/residual_block_38/conv2d_88/Conv2D/merged_input", "op": "Const", "attr": {"value": {"tensor": {"dtype": "DT_FLOAT", "tensorShape": {"dim": [{"size": "3"}, {"size": "3"}, {"size": "256"}, {"size": "256"}]}}}, "dtype": {"type": "DT_FLOAT"}}}, {"name": "StatefulPartitionedCall/center_net_hourglass_feature_extractor/hourglass_network/encoder_decoder_block_5/residual_block_37/ArithmeticOptimizer/AddOpsRewrite_Leaf_0_add", "op": "Const", "attr": {"value": {"tensor": {"dtype": "DT_FLOAT", "tensorShape": {"dim": [{"size": "256"}]}}}, "dtype": {"type": "DT_FLOAT"}}}, {"name": "StatefulPartitionedCall/center_net_hourglass_feature_extractor/hourglass_network/encoder_decoder_block_5/residual_block_37/convolutional_block_39/zero_padding2d_39/Pad/paddings", "op": "Const", "attr": {"value": {"tensor": {"dtype": "DT_INT32", "tensorShape": {"dim": [{"size": "4"}, {"size": "2"}]}}}, "dtype": {"type": "DT_INT32"}}}, {"name": "StatefulPartitionedCall/center_net_hourglass_feature_extractor/hourglass_network/encoder_decoder_block_5/residual_block_37/convolutional_block_39/conv2d_84/Conv2D/merged_input", "op": "Const", "attr": {"value": {"tensor": {"dtype": "DT_FLOAT", "tensorShape": {"dim": [{"size": "3"}, {"size": "3"}, {"size": "256"}, {"size": "256"}]}}}, "dtype": {"type": "DT_FLOAT"}}}, {"name": "StatefulPartitionedCall/center_net_hourglass_feature_extractor/hourglass_network/encoder_decoder_block_5/residual_block_37/convolutional_block_39/batchnorm/batchnorm/sub", "op": "Const", "attr": {"dtype": {"type": "DT_FLOAT"}, "value": {"tensor": {"dtype": "DT_FLOAT", "tensorShape": {"dim": [{"size": "256"}]}}}}}, {"name": "StatefulPartitionedCall/center_net_hourglass_feature_extractor/hourglass_network/encoder_decoder_block_5/residual_block_37/conv2d_85/Conv2D/merged_input", "op": "Const", "attr": {"dtype": {"type": "DT_FLOAT"}, "value": {"tensor": {"dtype": "DT_FLOAT", "tensorShape": {"dim": [{"size": "3"}, {"size": "3"}, {"size": "256"}, {"size": "256"}]}}}}}, {"name": "StatefulPartitionedCall/center_net_hourglass_feature_extractor/hourglass_network/residual_block_69/batchnorm/batchnorm/sub", "op": "Const", "attr": {"dtype": {"type": "DT_FLOAT"}, "value": {"tensor": {"dtype": "DT_FLOAT", "tensorShape": {"dim": [{"size": "256"}]}}}}}, {"name": "StatefulPartitionedCall/center_net_hourglass_feature_extractor/hourglass_network/residual_block_69/convolutional_block_74/zero_padding2d_72/Pad/paddings", "op": "Const", "attr": {"value": {"tensor": {"dtype": "DT_INT32", "tensorShape": {"dim": [{"size": "4"}, {"size": "2"}]}}}, "dtype": {"type": "DT_INT32"}}}, {"name": "StatefulPartitionedCall/center_net_hourglass_feature_extractor/hourglass_network/residual_block_69/convolutional_block_74/conv2d_158/Conv2D/merged_input", "op": "Const", "attr": {"dtype": {"type": "DT_FLOAT"}, "value": {"tensor": {"dtype": "DT_FLOAT", "tensorShape": {"dim": [{"size": "3"}, {"size": "3"}, {"size": "256"}, {"size": "256"}]}}}}}, {"name": "StatefulPartitionedCall/center_net_hourglass_feature_extractor/hourglass_network/residual_block_69/convolutional_block_74/batchnorm/batchnorm/sub", "op": "Const", "attr": {"dtype": {"type": "DT_FLOAT"}, "value": {"tensor": {"dtype": "DT_FLOAT", "tensorShape": {"dim": [{"size": "256"}]}}}}}, {"name": "StatefulPartitionedCall/center_net_hourglass_feature_extractor/hourglass_network/residual_block_69/conv2d_159/Conv2D/merged_input", "op": "Const", "attr": {"value": {"tensor": {"dtype": "DT_FLOAT", "tensorShape": {"dim": [{"size": "3"}, {"size": "3"}, {"size": "256"}, {"size": "256"}]}}}, "dtype": {"type": "DT_FLOAT"}}}, {"name": "StatefulPartitionedCall/center_net_hourglass_feature_extractor/hourglass_network/convolutional_block_72/conv2d_156/Conv2D/merged_input", "op": "Const", "attr": {"value": {"tensor": {"dtype": "DT_FLOAT", "tensorShape": {"dim": [{"size": "1"}, {"size": "1"}, {"size": "256"}, {"size": "256"}]}}}, "dtype": {"type": "DT_FLOAT"}}}, {"name": "StatefulPartitionedCall/center_net_hourglass_feature_extractor/hourglass_network/convolutional_block_72/batchnorm/batchnorm/sub", "op": "Const", "attr": {"dtype": {"type": "DT_FLOAT"}, "value": {"tensor": {"dtype": "DT_FLOAT", "tensorShape": {"dim": [{"size": "256"}]}}}}}, {"name": "StatefulPartitionedCall/center_net_hourglass_feature_extractor/hourglass_network/encoder_decoder_block/residual_block_2/convolutional_block_3/zero_padding2d_3/Pad/paddings", "op": "Const", "attr": {"dtype": {"type": "DT_INT32"}, "value": {"tensor": {"dtype": "DT_INT32", "tensorShape": {"dim": [{"size": "4"}, {"size": "2"}]}}}}}, {"name": "StatefulPartitionedCall/center_net_hourglass_feature_extractor/hourglass_network/encoder_decoder_block/residual_block_2/convolutional_block_3/conv2d_6/Conv2D/merged_input", "op": "Const", "attr": {"dtype": {"type": "DT_FLOAT"}, "value": {"tensor": {"dtype": "DT_FLOAT", "tensorShape": {"dim": [{"size": "3"}, {"size": "3"}, {"size": "256"}, {"size": "256"}]}}}}}, {"name": "StatefulPartitionedCall/center_net_hourglass_feature_extractor/hourglass_network/encoder_decoder_block/residual_block_2/convolutional_block_3/batchnorm/batchnorm/sub", "op": "Const", "attr": {"value": {"tensor": {"dtype": "DT_FLOAT", "tensorShape": {"dim": [{"size": "256"}]}}}, "dtype": {"type": "DT_FLOAT"}}}, {"name": "StatefulPartitionedCall/center_net_hourglass_feature_extractor/hourglass_network/encoder_decoder_block/residual_block_2/conv2d_7/Conv2D/merged_input", "op": "Const", "attr": {"dtype": {"type": "DT_FLOAT"}, "value": {"tensor": {"dtype": "DT_FLOAT", "tensorShape": {"dim": [{"size": "3"}, {"size": "3"}, {"size": "256"}, {"size": "256"}]}}}}}, {"name": "StatefulPartitionedCall/center_net_hourglass_feature_extractor/hourglass_network/encoder_decoder_block/residual_block_2/batchnorm/batchnorm/sub", "op": "Const", "attr": {"value": {"tensor": {"dtype": "DT_FLOAT", "tensorShape": {"dim": [{"size": "256"}]}}}, "dtype": {"type": "DT_FLOAT"}}}, {"name": "StatefulPartitionedCall/center_net_hourglass_feature_extractor/hourglass_network/encoder_decoder_block/residual_block_1/convolutional_block_2/zero_padding2d_2/Pad/paddings", "op": "Const", "attr": {"value": {"tensor": {"dtype": "DT_INT32", "tensorShape": {"dim": [{"size": "4"}, {"size": "2"}]}}}, "dtype": {"type": "DT_INT32"}}}, {"name": "StatefulPartitionedCall/center_net_hourglass_feature_extractor/hourglass_network/encoder_decoder_block/residual_block_1/convolutional_block_2/conv2d_4/Conv2D/merged_input", "op": "Const", "attr": {"value": {"tensor": {"dtype": "DT_FLOAT", "tensorShape": {"dim": [{"size": "3"}, {"size": "3"}, {"size": "256"}, {"size": "256"}]}}}, "dtype": {"type": "DT_FLOAT"}}}, {"name": "StatefulPartitionedCall/center_net_hourglass_feature_extractor/hourglass_network/encoder_decoder_block/residual_block_1/convolutional_block_2/batchnorm/batchnorm/sub", "op": "Const", "attr": {"dtype": {"type": "DT_FLOAT"}, "value": {"tensor": {"dtype": "DT_FLOAT", "tensorShape": {"dim": [{"size": "256"}]}}}}}, {"name": "StatefulPartitionedCall/center_net_hourglass_feature_extractor/hourglass_network/encoder_decoder_block/residual_block_1/conv2d_5/Conv2D/merged_input", "op": "Const", "attr": {"dtype": {"type": "DT_FLOAT"}, "value": {"tensor": {"dtype": "DT_FLOAT", "tensorShape": {"dim": [{"size": "3"}, {"size": "3"}, {"size": "256"}, {"size": "256"}]}}}}}, {"name": "StatefulPartitionedCall/center_net_hourglass_feature_extractor/hourglass_network/encoder_decoder_block/residual_block_1/batchnorm/batchnorm/sub", "op": "Const", "attr": {"value": {"tensor": {"dtype": "DT_FLOAT", "tensorShape": {"dim": [{"size": "256"}]}}}, "dtype": {"type": "DT_FLOAT"}}}, {"name": "StatefulPartitionedCall/center_net_hourglass_feature_extractor/hourglass_network/encoder_decoder_block/residual_block_34/batchnorm/batchnorm/sub", "op": "Const", "attr": {"value": {"tensor": {"dtype": "DT_FLOAT", "tensorShape": {"dim": [{"size": "256"}]}}}, "dtype": {"type": "DT_FLOAT"}}}, {"name": "StatefulPartitionedCall/center_net_hourglass_feature_extractor/hourglass_network/encoder_decoder_block/residual_block_34/convolutional_block_35/zero_padding2d_35/Pad/paddings", "op": "Const", "attr": {"value": {"tensor": {"dtype": "DT_INT32", "tensorShape": {"dim": [{"size": "4"}, {"size": "2"}]}}}, "dtype": {"type": "DT_INT32"}}}, {"name": "StatefulPartitionedCall/center_net_hourglass_feature_extractor/hourglass_network/encoder_decoder_block/residual_block_34/convolutional_block_35/conv2d_77/Conv2D/merged_input", "op": "Const", "attr": {"value": {"tensor": {"dtype": "DT_FLOAT", "tensorShape": {"dim": [{"size": "3"}, {"size": "3"}, {"size": "256"}, {"size": "256"}]}}}, "dtype": {"type": "DT_FLOAT"}}}, {"name": "StatefulPartitionedCall/center_net_hourglass_feature_extractor/hourglass_network/encoder_decoder_block/residual_block_34/convolutional_block_35/batchnorm/batchnorm/sub", "op": "Const", "attr": {"value": {"tensor": {"dtype": "DT_FLOAT", "tensorShape": {"dim": [{"size": "256"}]}}}, "dtype": {"type": "DT_FLOAT"}}}, {"name": "StatefulPartitionedCall/center_net_hourglass_feature_extractor/hourglass_network/encoder_decoder_block/residual_block_34/conv2d_78/Conv2D/merged_input", "op": "Const", "attr": {"value": {"tensor": {"dtype": "DT_FLOAT", "tensorShape": {"dim": [{"size": "3"}, {"size": "3"}, {"size": "256"}, {"size": "256"}]}}}, "dtype": {"type": "DT_FLOAT"}}}, {"name": "StatefulPartitionedCall/center_net_hourglass_feature_extractor/hourglass_network/encoder_decoder_block/residual_block_33/batchnorm/batchnorm/sub", "op": "Const", "attr": {"dtype": {"type": "DT_FLOAT"}, "value": {"tensor": {"dtype": "DT_FLOAT", "tensorShape": {"dim": [{"size": "256"}]}}}}}, {"name": "StatefulPartitionedCall/center_net_hourglass_feature_extractor/hourglass_network/encoder_decoder_block/residual_block_33/convolutional_block_34/zero_padding2d_34/Pad/paddings", "op": "Const", "attr": {"value": {"tensor": {"dtype": "DT_INT32", "tensorShape": {"dim": [{"size": "4"}, {"size": "2"}]}}}, "dtype": {"type": "DT_INT32"}}}, {"name": "StatefulPartitionedCall/center_net_hourglass_feature_extractor/hourglass_network/encoder_decoder_block/residual_block_33/convolutional_block_34/conv2d_75/Conv2D/merged_input", "op": "Const", "attr": {"dtype": {"type": "DT_FLOAT"}, "value": {"tensor": {"dtype": "DT_FLOAT", "tensorShape": {"dim": [{"size": "3"}, {"size": "3"}, {"size": "256"}, {"size": "256"}]}}}}}, {"name": "StatefulPartitionedCall/center_net_hourglass_feature_extractor/hourglass_network/encoder_decoder_block/residual_block_33/convolutional_block_34/batchnorm/batchnorm/sub", "op": "Const", "attr": {"dtype": {"type": "DT_FLOAT"}, "value": {"tensor": {"dtype": "DT_FLOAT", "tensorShape": {"dim": [{"size": "256"}]}}}}}, {"name": "StatefulPartitionedCall/center_net_hourglass_feature_extractor/hourglass_network/encoder_decoder_block/residual_block_33/conv2d_76/Conv2D/merged_input", "op": "Const", "attr": {"value": {"tensor": {"dtype": "DT_FLOAT", "tensorShape": {"dim": [{"size": "3"}, {"size": "3"}, {"size": "256"}, {"size": "256"}]}}}, "dtype": {"type": "DT_FLOAT"}}}, {"name": "StatefulPartitionedCall/center_net_hourglass_feature_extractor/hourglass_network/encoder_decoder_block/encoder_decoder_block_1/residual_block_6/convolutional_block_7/zero_padding2d_7/Pad/paddings", "op": "Const", "attr": {"value": {"tensor": {"dtype": "DT_INT32", "tensorShape": {"dim": [{"size": "4"}, {"size": "2"}]}}}, "dtype": {"type": "DT_INT32"}}}, {"name": "StatefulPartitionedCall/center_net_hourglass_feature_extractor/hourglass_network/encoder_decoder_block/encoder_decoder_block_1/residual_block_6/convolutional_block_7/conv2d_15/Conv2D/merged_input", "op": "Const", "attr": {"dtype": {"type": "DT_FLOAT"}, "value": {"tensor": {"dtype": "DT_FLOAT", "tensorShape": {"dim": [{"size": "3"}, {"size": "3"}, {"size": "256"}, {"size": "256"}]}}}}}, {"name": "StatefulPartitionedCall/center_net_hourglass_feature_extractor/hourglass_network/encoder_decoder_block/encoder_decoder_block_1/residual_block_6/convolutional_block_7/batchnorm/batchnorm/sub", "op": "Const", "attr": {"value": {"tensor": {"dtype": "DT_FLOAT", "tensorShape": {"dim": [{"size": "256"}]}}}, "dtype": {"type": "DT_FLOAT"}}}, {"name": "StatefulPartitionedCall/center_net_hourglass_feature_extractor/hourglass_network/encoder_decoder_block/encoder_decoder_block_1/residual_block_6/conv2d_16/Conv2D/merged_input", "op": "Const", "attr": {"value": {"tensor": {"dtype": "DT_FLOAT", "tensorShape": {"dim": [{"size": "3"}, {"size": "3"}, {"size": "256"}, {"size": "256"}]}}}, "dtype": {"type": "DT_FLOAT"}}}, {"name": "StatefulPartitionedCall/center_net_hourglass_feature_extractor/hourglass_network/encoder_decoder_block/encoder_decoder_block_1/residual_block_6/batchnorm/batchnorm/sub", "op": "Const", "attr": {"dtype": {"type": "DT_FLOAT"}, "value": {"tensor": {"dtype": "DT_FLOAT", "tensorShape": {"dim": [{"size": "256"}]}}}}}, {"name": "StatefulPartitionedCall/center_net_hourglass_feature_extractor/hourglass_network/encoder_decoder_block/encoder_decoder_block_1/residual_block_5/convolutional_block_6/zero_padding2d_6/Pad/paddings", "op": "Const", "attr": {"value": {"tensor": {"dtype": "DT_INT32", "tensorShape": {"dim": [{"size": "4"}, {"size": "2"}]}}}, "dtype": {"type": "DT_INT32"}}}, {"name": "StatefulPartitionedCall/center_net_hourglass_feature_extractor/hourglass_network/encoder_decoder_block/encoder_decoder_block_1/residual_block_5/convolutional_block_6/conv2d_13/Conv2D/merged_input", "op": "Const", "attr": {"value": {"tensor": {"dtype": "DT_FLOAT", "tensorShape": {"dim": [{"size": "3"}, {"size": "3"}, {"size": "256"}, {"size": "256"}]}}}, "dtype": {"type": "DT_FLOAT"}}}, {"name": "StatefulPartitionedCall/center_net_hourglass_feature_extractor/hourglass_network/encoder_decoder_block/encoder_decoder_block_1/residual_block_5/convolutional_block_6/batchnorm/batchnorm/sub", "op": "Const", "attr": {"dtype": {"type": "DT_FLOAT"}, "value": {"tensor": {"dtype": "DT_FLOAT", "tensorShape": {"dim": [{"size": "256"}]}}}}}, {"name": "StatefulPartitionedCall/center_net_hourglass_feature_extractor/hourglass_network/encoder_decoder_block/encoder_decoder_block_1/residual_block_5/conv2d_14/Conv2D/merged_input", "op": "Const", "attr": {"dtype": {"type": "DT_FLOAT"}, "value": {"tensor": {"dtype": "DT_FLOAT", "tensorShape": {"dim": [{"size": "3"}, {"size": "3"}, {"size": "256"}, {"size": "256"}]}}}}}, {"name": "StatefulPartitionedCall/center_net_hourglass_feature_extractor/hourglass_network/encoder_decoder_block/encoder_decoder_block_1/residual_block_5/batchnorm/batchnorm/sub", "op": "Const", "attr": {"dtype": {"type": "DT_FLOAT"}, "value": {"tensor": {"dtype": "DT_FLOAT", "tensorShape": {"dim": [{"size": "256"}]}}}}}, {"name": "StatefulPartitionedCall/center_net_hourglass_feature_extractor/hourglass_network/encoder_decoder_block/encoder_decoder_block_1/residual_block_32/ArithmeticOptimizer/AddOpsRewrite_Leaf_0_add", "op": "Const", "attr": {"dtype": {"type": "DT_FLOAT"}, "value": {"tensor": {"dtype": "DT_FLOAT", "tensorShape": {"dim": [{"size": "256"}]}}}}}, {"name": "StatefulPartitionedCall/center_net_hourglass_feature_extractor/hourglass_network/encoder_decoder_block/encoder_decoder_block_1/residual_block_32/convolutional_block_33/zero_padding2d_33/Pad/paddings", "op": "Const", "attr": {"value": {"tensor": {"dtype": "DT_INT32", "tensorShape": {"dim": [{"size": "4"}, {"size": "2"}]}}}, "dtype": {"type": "DT_INT32"}}}, {"name": "StatefulPartitionedCall/center_net_hourglass_feature_extractor/hourglass_network/encoder_decoder_block/encoder_decoder_block_1/residual_block_32/convolutional_block_33/conv2d_72/Conv2D/merged_input", "op": "Const", "attr": {"value": {"tensor": {"dtype": "DT_FLOAT", "tensorShape": {"dim": [{"size": "3"}, {"size": "3"}, {"size": "384"}, {"size": "256"}]}}}, "dtype": {"type": "DT_FLOAT"}}}, {"name": "StatefulPartitionedCall/center_net_hourglass_feature_extractor/hourglass_network/encoder_decoder_block/encoder_decoder_block_1/residual_block_32/convolutional_block_33/batchnorm/batchnorm/sub", "op": "Const", "attr": {"dtype": {"type": "DT_FLOAT"}, "value": {"tensor": {"dtype": "DT_FLOAT", "tensorShape": {"dim": [{"size": "256"}]}}}}}, {"name": "StatefulPartitionedCall/center_net_hourglass_feature_extractor/hourglass_network/encoder_decoder_block/encoder_decoder_block_1/residual_block_32/conv2d_73/Conv2D/merged_input", "op": "Const", "attr": {"dtype": {"type": "DT_FLOAT"}, "value": {"tensor": {"dtype": "DT_FLOAT", "tensorShape": {"dim": [{"size": "3"}, {"size": "3"}, {"size": "256"}, {"size": "256"}]}}}}}, {"name": "StatefulPartitionedCall/center_net_hourglass_feature_extractor/hourglass_network/encoder_decoder_block/encoder_decoder_block_1/residual_block_31/batchnorm/batchnorm/sub", "op": "Const", "attr": {"dtype": {"type": "DT_FLOAT"}, "value": {"tensor": {"dtype": "DT_FLOAT", "tensorShape": {"dim": [{"size": "384"}]}}}}}, {"name": "StatefulPartitionedCall/center_net_hourglass_feature_extractor/hourglass_network/encoder_decoder_block/encoder_decoder_block_1/residual_block_31/convolutional_block_32/zero_padding2d_32/Pad/paddings", "op": "Const", "attr": {"value": {"tensor": {"dtype": "DT_INT32", "tensorShape": {"dim": [{"size": "4"}, {"size": "2"}]}}}, "dtype": {"type": "DT_INT32"}}}, {"name": "StatefulPartitionedCall/center_net_hourglass_feature_extractor/hourglass_network/encoder_decoder_block/encoder_decoder_block_1/residual_block_31/convolutional_block_32/conv2d_70/Conv2D/merged_input", "op": "Const", "attr": {"value": {"tensor": {"dtype": "DT_FLOAT", "tensorShape": {"dim": [{"size": "3"}, {"size": "3"}, {"size": "384"}, {"size": "384"}]}}}, "dtype": {"type": "DT_FLOAT"}}}, {"name": "StatefulPartitionedCall/center_net_hourglass_feature_extractor/hourglass_network/encoder_decoder_block/encoder_decoder_block_1/residual_block_31/convolutional_block_32/batchnorm/batchnorm/sub", "op": "Const", "attr": {"value": {"tensor": {"dtype": "DT_FLOAT", "tensorShape": {"dim": [{"size": "384"}]}}}, "dtype": {"type": "DT_FLOAT"}}}, {"name": "StatefulPartitionedCall/center_net_hourglass_feature_extractor/hourglass_network/encoder_decoder_block/encoder_decoder_block_1/residual_block_31/conv2d_71/Conv2D/merged_input", "op": "Const", "attr": {"dtype": {"type": "DT_FLOAT"}, "value": {"tensor": {"dtype": "DT_FLOAT", "tensorShape": {"dim": [{"size": "3"}, {"size": "3"}, {"size": "384"}, {"size": "384"}]}}}}}, {"name": "StatefulPartitionedCall/center_net_hourglass_feature_extractor/hourglass_network/encoder_decoder_block/encoder_decoder_block_1/encoder_decoder_block_2/residual_block_10/convolutional_block_11/zero_padding2d_11/Pad/paddings", "op": "Const", "attr": {"dtype": {"type": "DT_INT32"}, "value": {"tensor": {"dtype": "DT_INT32", "tensorShape": {"dim": [{"size": "4"}, {"size": "2"}]}}}}}, {"name": "StatefulPartitionedCall/center_net_hourglass_feature_extractor/hourglass_network/encoder_decoder_block/encoder_decoder_block_1/encoder_decoder_block_2/residual_block_10/convolutional_block_11/conv2d_24/Conv2D/merged_input", "op": "Const", "attr": {"value": {"tensor": {"dtype": "DT_FLOAT", "tensorShape": {"dim": [{"size": "3"}, {"size": "3"}, {"size": "384"}, {"size": "384"}]}}}, "dtype": {"type": "DT_FLOAT"}}}, {"name": "StatefulPartitionedCall/center_net_hourglass_feature_extractor/hourglass_network/encoder_decoder_block/encoder_decoder_block_1/encoder_decoder_block_2/residual_block_10/convolutional_block_11/batchnorm/batchnorm/sub", "op": "Const", "attr": {"value": {"tensor": {"dtype": "DT_FLOAT", "tensorShape": {"dim": [{"size": "384"}]}}}, "dtype": {"type": "DT_FLOAT"}}}, {"name": "StatefulPartitionedCall/center_net_hourglass_feature_extractor/hourglass_network/encoder_decoder_block/encoder_decoder_block_1/encoder_decoder_block_2/residual_block_10/conv2d_25/Conv2D/merged_input", "op": "Const", "attr": {"dtype": {"type": "DT_FLOAT"}, "value": {"tensor": {"dtype": "DT_FLOAT", "tensorShape": {"dim": [{"size": "3"}, {"size": "3"}, {"size": "384"}, {"size": "384"}]}}}}}, {"name": "StatefulPartitionedCall/center_net_hourglass_feature_extractor/hourglass_network/encoder_decoder_block/encoder_decoder_block_1/encoder_decoder_block_2/residual_block_10/batchnorm/batchnorm/sub", "op": "Const", "attr": {"value": {"tensor": {"dtype": "DT_FLOAT", "tensorShape": {"dim": [{"size": "384"}]}}}, "dtype": {"type": "DT_FLOAT"}}}, {"name": "StatefulPartitionedCall/center_net_hourglass_feature_extractor/hourglass_network/encoder_decoder_block/encoder_decoder_block_1/encoder_decoder_block_2/residual_block_9/convolutional_block_10/zero_padding2d_10/Pad/paddings", "op": "Const", "attr": {"dtype": {"type": "DT_INT32"}, "value": {"tensor": {"dtype": "DT_INT32", "tensorShape": {"dim": [{"size": "4"}, {"size": "2"}]}}}}}, {"name": "StatefulPartitionedCall/center_net_hourglass_feature_extractor/hourglass_network/encoder_decoder_block/encoder_decoder_block_1/encoder_decoder_block_2/residual_block_9/convolutional_block_10/conv2d_22/Conv2D/merged_input", "op": "Const", "attr": {"dtype": {"type": "DT_FLOAT"}, "value": {"tensor": {"dtype": "DT_FLOAT", "tensorShape": {"dim": [{"size": "3"}, {"size": "3"}, {"size": "384"}, {"size": "384"}]}}}}}, {"name": "StatefulPartitionedCall/center_net_hourglass_feature_extractor/hourglass_network/encoder_decoder_block/encoder_decoder_block_1/encoder_decoder_block_2/residual_block_9/convolutional_block_10/batchnorm/batchnorm/sub", "op": "Const", "attr": {"dtype": {"type": "DT_FLOAT"}, "value": {"tensor": {"dtype": "DT_FLOAT", "tensorShape": {"dim": [{"size": "384"}]}}}}}, {"name": "StatefulPartitionedCall/center_net_hourglass_feature_extractor/hourglass_network/encoder_decoder_block/encoder_decoder_block_1/encoder_decoder_block_2/residual_block_9/conv2d_23/Conv2D/merged_input", "op": "Const", "attr": {"dtype": {"type": "DT_FLOAT"}, "value": {"tensor": {"dtype": "DT_FLOAT", "tensorShape": {"dim": [{"size": "3"}, {"size": "3"}, {"size": "384"}, {"size": "384"}]}}}}}, {"name": "StatefulPartitionedCall/center_net_hourglass_feature_extractor/hourglass_network/encoder_decoder_block/encoder_decoder_block_1/encoder_decoder_block_2/residual_block_9/batchnorm/batchnorm/sub", "op": "Const", "attr": {"value": {"tensor": {"dtype": "DT_FLOAT", "tensorShape": {"dim": [{"size": "384"}]}}}, "dtype": {"type": "DT_FLOAT"}}}, {"name": "StatefulPartitionedCall/center_net_hourglass_feature_extractor/hourglass_network/encoder_decoder_block/encoder_decoder_block_1/encoder_decoder_block_2/residual_block_30/batchnorm/batchnorm/sub", "op": "Const", "attr": {"value": {"tensor": {"dtype": "DT_FLOAT", "tensorShape": {"dim": [{"size": "384"}]}}}, "dtype": {"type": "DT_FLOAT"}}}, {"name": "StatefulPartitionedCall/center_net_hourglass_feature_extractor/hourglass_network/encoder_decoder_block/encoder_decoder_block_1/encoder_decoder_block_2/residual_block_30/convolutional_block_31/zero_padding2d_31/Pad/paddings", "op": "Const", "attr": {"dtype": {"type": "DT_INT32"}, "value": {"tensor": {"dtype": "DT_INT32", "tensorShape": {"dim": [{"size": "4"}, {"size": "2"}]}}}}}, {"name": "StatefulPartitionedCall/center_net_hourglass_feature_extractor/hourglass_network/encoder_decoder_block/encoder_decoder_block_1/encoder_decoder_block_2/residual_block_30/convolutional_block_31/conv2d_68/Conv2D/merged_input", "op": "Const", "attr": {"dtype": {"type": "DT_FLOAT"}, "value": {"tensor": {"dtype": "DT_FLOAT", "tensorShape": {"dim": [{"size": "3"}, {"size": "3"}, {"size": "384"}, {"size": "384"}]}}}}}, {"name": "StatefulPartitionedCall/center_net_hourglass_feature_extractor/hourglass_network/encoder_decoder_block/encoder_decoder_block_1/encoder_decoder_block_2/residual_block_30/convolutional_block_31/batchnorm/batchnorm/sub", "op": "Const", "attr": {"dtype": {"type": "DT_FLOAT"}, "value": {"tensor": {"dtype": "DT_FLOAT", "tensorShape": {"dim": [{"size": "384"}]}}}}}, {"name": "StatefulPartitionedCall/center_net_hourglass_feature_extractor/hourglass_network/encoder_decoder_block/encoder_decoder_block_1/encoder_decoder_block_2/residual_block_30/conv2d_69/Conv2D/merged_input", "op": "Const", "attr": {"value": {"tensor": {"dtype": "DT_FLOAT", "tensorShape": {"dim": [{"size": "3"}, {"size": "3"}, {"size": "384"}, {"size": "384"}]}}}, "dtype": {"type": "DT_FLOAT"}}}, {"name": "StatefulPartitionedCall/center_net_hourglass_feature_extractor/hourglass_network/encoder_decoder_block/encoder_decoder_block_1/encoder_decoder_block_2/residual_block_29/batchnorm/batchnorm/sub", "op": "Const", "attr": {"dtype": {"type": "DT_FLOAT"}, "value": {"tensor": {"dtype": "DT_FLOAT", "tensorShape": {"dim": [{"size": "384"}]}}}}}, {"name": "StatefulPartitionedCall/center_net_hourglass_feature_extractor/hourglass_network/encoder_decoder_block/encoder_decoder_block_1/encoder_decoder_block_2/residual_block_29/convolutional_block_30/zero_padding2d_30/Pad/paddings", "op": "Const", "attr": {"dtype": {"type": "DT_INT32"}, "value": {"tensor": {"dtype": "DT_INT32", "tensorShape": {"dim": [{"size": "4"}, {"size": "2"}]}}}}}, {"name": "StatefulPartitionedCall/center_net_hourglass_feature_extractor/hourglass_network/encoder_decoder_block/encoder_decoder_block_1/encoder_decoder_block_2/residual_block_29/convolutional_block_30/conv2d_66/Conv2D/merged_input", "op": "Const", "attr": {"value": {"tensor": {"dtype": "DT_FLOAT", "tensorShape": {"dim": [{"size": "3"}, {"size": "3"}, {"size": "384"}, {"size": "384"}]}}}, "dtype": {"type": "DT_FLOAT"}}}, {"name": "StatefulPartitionedCall/center_net_hourglass_feature_extractor/hourglass_network/encoder_decoder_block/encoder_decoder_block_1/encoder_decoder_block_2/residual_block_29/convolutional_block_30/batchnorm/batchnorm/sub", "op": "Const", "attr": {"dtype": {"type": "DT_FLOAT"}, "value": {"tensor": {"dtype": "DT_FLOAT", "tensorShape": {"dim": [{"size": "384"}]}}}}}, {"name": "StatefulPartitionedCall/center_net_hourglass_feature_extractor/hourglass_network/encoder_decoder_block/encoder_decoder_block_1/encoder_decoder_block_2/residual_block_29/conv2d_67/Conv2D/merged_input", "op": "Const", "attr": {"dtype": {"type": "DT_FLOAT"}, "value": {"tensor": {"dtype": "DT_FLOAT", "tensorShape": {"dim": [{"size": "3"}, {"size": "3"}, {"size": "384"}, {"size": "384"}]}}}}}, {"name": "StatefulPartitionedCall/center_net_hourglass_feature_extractor/hourglass_network/encoder_decoder_block/encoder_decoder_block_1/encoder_decoder_block_2/encoder_decoder_block_3/residual_block_14/convolutional_block_15/zero_padding2d_15/Pad/paddings", "op": "Const", "attr": {"dtype": {"type": "DT_INT32"}, "value": {"tensor": {"dtype": "DT_INT32", "tensorShape": {"dim": [{"size": "4"}, {"size": "2"}]}}}}}, {"name": "StatefulPartitionedCall/center_net_hourglass_feature_extractor/hourglass_network/encoder_decoder_block/encoder_decoder_block_1/encoder_decoder_block_2/encoder_decoder_block_3/residual_block_14/convolutional_block_15/conv2d_33/Conv2D/merged_input", "op": "Const", "attr": {"dtype": {"type": "DT_FLOAT"}, "value": {"tensor": {"dtype": "DT_FLOAT", "tensorShape": {"dim": [{"size": "3"}, {"size": "3"}, {"size": "384"}, {"size": "384"}]}}}}}, {"name": "StatefulPartitionedCall/center_net_hourglass_feature_extractor/hourglass_network/encoder_decoder_block/encoder_decoder_block_1/encoder_decoder_block_2/encoder_decoder_block_3/residual_block_14/convolutional_block_15/batchnorm/batchnorm/sub", "op": "Const", "attr": {"dtype": {"type": "DT_FLOAT"}, "value": {"tensor": {"dtype": "DT_FLOAT", "tensorShape": {"dim": [{"size": "384"}]}}}}}, {"name": "StatefulPartitionedCall/center_net_hourglass_feature_extractor/hourglass_network/encoder_decoder_block/encoder_decoder_block_1/encoder_decoder_block_2/encoder_decoder_block_3/residual_block_14/conv2d_34/Conv2D/merged_input", "op": "Const", "attr": {"value": {"tensor": {"dtype": "DT_FLOAT", "tensorShape": {"dim": [{"size": "3"}, {"size": "3"}, {"size": "384"}, {"size": "384"}]}}}, "dtype": {"type": "DT_FLOAT"}}}, {"name": "StatefulPartitionedCall/center_net_hourglass_feature_extractor/hourglass_network/encoder_decoder_block/encoder_decoder_block_1/encoder_decoder_block_2/encoder_decoder_block_3/residual_block_14/batchnorm/batchnorm/sub", "op": "Const", "attr": {"dtype": {"type": "DT_FLOAT"}, "value": {"tensor": {"dtype": "DT_FLOAT", "tensorShape": {"dim": [{"size": "384"}]}}}}}, {"name": "StatefulPartitionedCall/center_net_hourglass_feature_extractor/hourglass_network/encoder_decoder_block/encoder_decoder_block_1/encoder_decoder_block_2/encoder_decoder_block_3/residual_block_13/convolutional_block_14/zero_padding2d_14/Pad/paddings", "op": "Const", "attr": {"value": {"tensor": {"dtype": "DT_INT32", "tensorShape": {"dim": [{"size": "4"}, {"size": "2"}]}}}, "dtype": {"type": "DT_INT32"}}}, {"name": "StatefulPartitionedCall/center_net_hourglass_feature_extractor/hourglass_network/encoder_decoder_block/encoder_decoder_block_1/encoder_decoder_block_2/encoder_decoder_block_3/residual_block_13/convolutional_block_14/conv2d_31/Conv2D/merged_input", "op": "Const", "attr": {"dtype": {"type": "DT_FLOAT"}, "value": {"tensor": {"dtype": "DT_FLOAT", "tensorShape": {"dim": [{"size": "3"}, {"size": "3"}, {"size": "384"}, {"size": "384"}]}}}}}, {"name": "StatefulPartitionedCall/center_net_hourglass_feature_extractor/hourglass_network/encoder_decoder_block/encoder_decoder_block_1/encoder_decoder_block_2/encoder_decoder_block_3/residual_block_13/convolutional_block_14/batchnorm/batchnorm/sub", "op": "Const", "attr": {"dtype": {"type": "DT_FLOAT"}, "value": {"tensor": {"dtype": "DT_FLOAT", "tensorShape": {"dim": [{"size": "384"}]}}}}}, {"name": "StatefulPartitionedCall/center_net_hourglass_feature_extractor/hourglass_network/encoder_decoder_block/encoder_decoder_block_1/encoder_decoder_block_2/encoder_decoder_block_3/residual_block_13/conv2d_32/Conv2D/merged_input", "op": "Const", "attr": {"dtype": {"type": "DT_FLOAT"}, "value": {"tensor": {"dtype": "DT_FLOAT", "tensorShape": {"dim": [{"size": "3"}, {"size": "3"}, {"size": "384"}, {"size": "384"}]}}}}}, {"name": "StatefulPartitionedCall/center_net_hourglass_feature_extractor/hourglass_network/encoder_decoder_block/encoder_decoder_block_1/encoder_decoder_block_2/encoder_decoder_block_3/residual_block_13/batchnorm/batchnorm/sub", "op": "Const", "attr": {"value": {"tensor": {"dtype": "DT_FLOAT", "tensorShape": {"dim": [{"size": "384"}]}}}, "dtype": {"type": "DT_FLOAT"}}}, {"name": "StatefulPartitionedCall/center_net_hourglass_feature_extractor/hourglass_network/encoder_decoder_block/encoder_decoder_block_1/encoder_decoder_block_2/encoder_decoder_block_3/residual_block_28/batchnorm/batchnorm/sub", "op": "Const", "attr": {"value": {"tensor": {"dtype": "DT_FLOAT", "tensorShape": {"dim": [{"size": "384"}]}}}, "dtype": {"type": "DT_FLOAT"}}}, {"name": "StatefulPartitionedCall/center_net_hourglass_feature_extractor/hourglass_network/encoder_decoder_block/encoder_decoder_block_1/encoder_decoder_block_2/encoder_decoder_block_3/residual_block_28/convolutional_block_29/zero_padding2d_29/Pad/paddings", "op": "Const", "attr": {"value": {"tensor": {"dtype": "DT_INT32", "tensorShape": {"dim": [{"size": "4"}, {"size": "2"}]}}}, "dtype": {"type": "DT_INT32"}}}, {"name": "StatefulPartitionedCall/center_net_hourglass_feature_extractor/hourglass_network/encoder_decoder_block/encoder_decoder_block_1/encoder_decoder_block_2/encoder_decoder_block_3/residual_block_28/convolutional_block_29/conv2d_64/Conv2D/merged_input", "op": "Const", "attr": {"dtype": {"type": "DT_FLOAT"}, "value": {"tensor": {"dtype": "DT_FLOAT", "tensorShape": {"dim": [{"size": "3"}, {"size": "3"}, {"size": "384"}, {"size": "384"}]}}}}}, {"name": "StatefulPartitionedCall/center_net_hourglass_feature_extractor/hourglass_network/encoder_decoder_block/encoder_decoder_block_1/encoder_decoder_block_2/encoder_decoder_block_3/residual_block_28/convolutional_block_29/batchnorm/batchnorm/sub", "op": "Const", "attr": {"dtype": {"type": "DT_FLOAT"}, "value": {"tensor": {"dtype": "DT_FLOAT", "tensorShape": {"dim": [{"size": "384"}]}}}}}, {"name": "StatefulPartitionedCall/center_net_hourglass_feature_extractor/hourglass_network/encoder_decoder_block/encoder_decoder_block_1/encoder_decoder_block_2/encoder_decoder_block_3/residual_block_28/conv2d_65/Conv2D/merged_input", "op": "Const", "attr": {"dtype": {"type": "DT_FLOAT"}, "value": {"tensor": {"dtype": "DT_FLOAT", "tensorShape": {"dim": [{"size": "3"}, {"size": "3"}, {"size": "384"}, {"size": "384"}]}}}}}, {"name": "StatefulPartitionedCall/center_net_hourglass_feature_extractor/hourglass_network/encoder_decoder_block/encoder_decoder_block_1/encoder_decoder_block_2/encoder_decoder_block_3/residual_block_27/batchnorm/batchnorm/sub", "op": "Const", "attr": {"dtype": {"type": "DT_FLOAT"}, "value": {"tensor": {"dtype": "DT_FLOAT", "tensorShape": {"dim": [{"size": "384"}]}}}}}, {"name": "StatefulPartitionedCall/center_net_hourglass_feature_extractor/hourglass_network/encoder_decoder_block/encoder_decoder_block_1/encoder_decoder_block_2/encoder_decoder_block_3/residual_block_27/convolutional_block_28/zero_padding2d_28/Pad/paddings", "op": "Const", "attr": {"value": {"tensor": {"dtype": "DT_INT32", "tensorShape": {"dim": [{"size": "4"}, {"size": "2"}]}}}, "dtype": {"type": "DT_INT32"}}}, {"name": "StatefulPartitionedCall/center_net_hourglass_feature_extractor/hourglass_network/encoder_decoder_block/encoder_decoder_block_1/encoder_decoder_block_2/encoder_decoder_block_3/residual_block_27/convolutional_block_28/conv2d_62/Conv2D/merged_input", "op": "Const", "attr": {"dtype": {"type": "DT_FLOAT"}, "value": {"tensor": {"dtype": "DT_FLOAT", "tensorShape": {"dim": [{"size": "3"}, {"size": "3"}, {"size": "384"}, {"size": "384"}]}}}}}, {"name": "StatefulPartitionedCall/center_net_hourglass_feature_extractor/hourglass_network/encoder_decoder_block/encoder_decoder_block_1/encoder_decoder_block_2/encoder_decoder_block_3/residual_block_27/convolutional_block_28/batchnorm/batchnorm/sub", "op": "Const", "attr": {"value": {"tensor": {"dtype": "DT_FLOAT", "tensorShape": {"dim": [{"size": "384"}]}}}, "dtype": {"type": "DT_FLOAT"}}}, {"name": "StatefulPartitionedCall/center_net_hourglass_feature_extractor/hourglass_network/encoder_decoder_block/encoder_decoder_block_1/encoder_decoder_block_2/encoder_decoder_block_3/residual_block_27/conv2d_63/Conv2D/merged_input", "op": "Const", "attr": {"dtype": {"type": "DT_FLOAT"}, "value": {"tensor": {"dtype": "DT_FLOAT", "tensorShape": {"dim": [{"size": "3"}, {"size": "3"}, {"size": "384"}, {"size": "384"}]}}}}}, {"name": "StatefulPartitionedCall/center_net_hourglass_feature_extractor/hourglass_network/encoder_decoder_block/encoder_decoder_block_1/encoder_decoder_block_2/encoder_decoder_block_3/encoder_decoder_block_4/residual_block_18/convolutional_block_19/zero_padding2d_19/Pad/paddings", "op": "Const", "attr": {"value": {"tensor": {"dtype": "DT_INT32", "tensorShape": {"dim": [{"size": "4"}, {"size": "2"}]}}}, "dtype": {"type": "DT_INT32"}}}, {"name": "StatefulPartitionedCall/center_net_hourglass_feature_extractor/hourglass_network/encoder_decoder_block/encoder_decoder_block_1/encoder_decoder_block_2/encoder_decoder_block_3/encoder_decoder_block_4/residual_block_18/convolutional_block_19/conv2d_42/Conv2D/merged_input", "op": "Const", "attr": {"value": {"tensor": {"dtype": "DT_FLOAT", "tensorShape": {"dim": [{"size": "3"}, {"size": "3"}, {"size": "384"}, {"size": "384"}]}}}, "dtype": {"type": "DT_FLOAT"}}}, {"name": "StatefulPartitionedCall/center_net_hourglass_feature_extractor/hourglass_network/encoder_decoder_block/encoder_decoder_block_1/encoder_decoder_block_2/encoder_decoder_block_3/encoder_decoder_block_4/residual_block_18/convolutional_block_19/batchnorm/batchnorm/sub", "op": "Const", "attr": {"value": {"tensor": {"dtype": "DT_FLOAT", "tensorShape": {"dim": [{"size": "384"}]}}}, "dtype": {"type": "DT_FLOAT"}}}, {"name": "StatefulPartitionedCall/center_net_hourglass_feature_extractor/hourglass_network/encoder_decoder_block/encoder_decoder_block_1/encoder_decoder_block_2/encoder_decoder_block_3/encoder_decoder_block_4/residual_block_18/conv2d_43/Conv2D/merged_input", "op": "Const", "attr": {"dtype": {"type": "DT_FLOAT"}, "value": {"tensor": {"dtype": "DT_FLOAT", "tensorShape": {"dim": [{"size": "3"}, {"size": "3"}, {"size": "384"}, {"size": "384"}]}}}}}, {"name": "StatefulPartitionedCall/center_net_hourglass_feature_extractor/hourglass_network/encoder_decoder_block/encoder_decoder_block_1/encoder_decoder_block_2/encoder_decoder_block_3/encoder_decoder_block_4/residual_block_18/batchnorm/batchnorm/sub", "op": "Const", "attr": {"dtype": {"type": "DT_FLOAT"}, "value": {"tensor": {"dtype": "DT_FLOAT", "tensorShape": {"dim": [{"size": "384"}]}}}}}, {"name": "StatefulPartitionedCall/center_net_hourglass_feature_extractor/hourglass_network/encoder_decoder_block/encoder_decoder_block_1/encoder_decoder_block_2/encoder_decoder_block_3/encoder_decoder_block_4/residual_block_17/convolutional_block_18/zero_padding2d_18/Pad/paddings", "op": "Const", "attr": {"value": {"tensor": {"dtype": "DT_INT32", "tensorShape": {"dim": [{"size": "4"}, {"size": "2"}]}}}, "dtype": {"type": "DT_INT32"}}}, {"name": "StatefulPartitionedCall/center_net_hourglass_feature_extractor/hourglass_network/encoder_decoder_block/encoder_decoder_block_1/encoder_decoder_block_2/encoder_decoder_block_3/encoder_decoder_block_4/residual_block_17/convolutional_block_18/conv2d_40/Conv2D/merged_input", "op": "Const", "attr": {"dtype": {"type": "DT_FLOAT"}, "value": {"tensor": {"dtype": "DT_FLOAT", "tensorShape": {"dim": [{"size": "3"}, {"size": "3"}, {"size": "384"}, {"size": "384"}]}}}}}, {"name": "StatefulPartitionedCall/center_net_hourglass_feature_extractor/hourglass_network/encoder_decoder_block/encoder_decoder_block_1/encoder_decoder_block_2/encoder_decoder_block_3/encoder_decoder_block_4/residual_block_17/convolutional_block_18/batchnorm/batchnorm/sub", "op": "Const", "attr": {"value": {"tensor": {"dtype": "DT_FLOAT", "tensorShape": {"dim": [{"size": "384"}]}}}, "dtype": {"type": "DT_FLOAT"}}}, {"name": "StatefulPartitionedCall/center_net_hourglass_feature_extractor/hourglass_network/encoder_decoder_block/encoder_decoder_block_1/encoder_decoder_block_2/encoder_decoder_block_3/encoder_decoder_block_4/residual_block_17/conv2d_41/Conv2D/merged_input", "op": "Const", "attr": {"dtype": {"type": "DT_FLOAT"}, "value": {"tensor": {"dtype": "DT_FLOAT", "tensorShape": {"dim": [{"size": "3"}, {"size": "3"}, {"size": "384"}, {"size": "384"}]}}}}}, {"name": "StatefulPartitionedCall/center_net_hourglass_feature_extractor/hourglass_network/encoder_decoder_block/encoder_decoder_block_1/encoder_decoder_block_2/encoder_decoder_block_3/encoder_decoder_block_4/residual_block_17/batchnorm/batchnorm/sub", "op": "Const", "attr": {"value": {"tensor": {"dtype": "DT_FLOAT", "tensorShape": {"dim": [{"size": "384"}]}}}, "dtype": {"type": "DT_FLOAT"}}}, {"name": "StatefulPartitionedCall/center_net_hourglass_feature_extractor/hourglass_network/encoder_decoder_block/encoder_decoder_block_1/encoder_decoder_block_2/encoder_decoder_block_3/encoder_decoder_block_4/residual_block_26/convolutional_block_27/zero_padding2d_27/Pad/paddings", "op": "Const", "attr": {"dtype": {"type": "DT_INT32"}, "value": {"tensor": {"dtype": "DT_INT32", "tensorShape": {"dim": [{"size": "4"}, {"size": "2"}]}}}}}, {"name": "StatefulPartitionedCall/center_net_hourglass_feature_extractor/hourglass_network/encoder_decoder_block/encoder_decoder_block_1/encoder_decoder_block_2/encoder_decoder_block_3/encoder_decoder_block_4/residual_block_26/convolutional_block_27/conv2d_59/Conv2D/merged_input", "op": "Const", "attr": {"value": {"tensor": {"dtype": "DT_FLOAT", "tensorShape": {"dim": [{"size": "3"}, {"size": "3"}, {"size": "512"}, {"size": "384"}]}}}, "dtype": {"type": "DT_FLOAT"}}}, {"name": "StatefulPartitionedCall/center_net_hourglass_feature_extractor/hourglass_network/encoder_decoder_block/encoder_decoder_block_1/encoder_decoder_block_2/encoder_decoder_block_3/encoder_decoder_block_4/residual_block_26/convolutional_block_27/batchnorm/batchnorm/sub", "op": "Const", "attr": {"dtype": {"type": "DT_FLOAT"}, "value": {"tensor": {"dtype": "DT_FLOAT", "tensorShape": {"dim": [{"size": "384"}]}}}}}, {"name": "StatefulPartitionedCall/center_net_hourglass_feature_extractor/hourglass_network/encoder_decoder_block/encoder_decoder_block_1/encoder_decoder_block_2/encoder_decoder_block_3/encoder_decoder_block_4/residual_block_26/conv2d_60/Conv2D/merged_input", "op": "Const", "attr": {"value": {"tensor": {"dtype": "DT_FLOAT", "tensorShape": {"dim": [{"size": "3"}, {"size": "3"}, {"size": "384"}, {"size": "384"}]}}}, "dtype": {"type": "DT_FLOAT"}}}, {"name": "StatefulPartitionedCall/center_net_hourglass_feature_extractor/hourglass_network/encoder_decoder_block/encoder_decoder_block_1/encoder_decoder_block_2/encoder_decoder_block_3/encoder_decoder_block_4/residual_block_26/batchnorm/batchnorm/sub", "op": "Const", "attr": {"dtype": {"type": "DT_FLOAT"}, "value": {"tensor": {"dtype": "DT_FLOAT", "tensorShape": {"dim": [{"size": "384"}]}}}}}, {"name": "StatefulPartitionedCall/center_net_hourglass_feature_extractor/hourglass_network/encoder_decoder_block/encoder_decoder_block_1/encoder_decoder_block_2/encoder_decoder_block_3/encoder_decoder_block_4/residual_block_25/convolutional_block_26/zero_padding2d_26/Pad/paddings", "op": "Const", "attr": {"dtype": {"type": "DT_INT32"}, "value": {"tensor": {"dtype": "DT_INT32", "tensorShape": {"dim": [{"size": "4"}, {"size": "2"}]}}}}}, {"name": "StatefulPartitionedCall/center_net_hourglass_feature_extractor/hourglass_network/encoder_decoder_block/encoder_decoder_block_1/encoder_decoder_block_2/encoder_decoder_block_3/encoder_decoder_block_4/residual_block_25/convolutional_block_26/conv2d_57/Conv2D/merged_input", "op": "Const", "attr": {"value": {"tensor": {"dtype": "DT_FLOAT", "tensorShape": {"dim": [{"size": "3"}, {"size": "3"}, {"size": "512"}, {"size": "512"}]}}}, "dtype": {"type": "DT_FLOAT"}}}, {"name": "StatefulPartitionedCall/center_net_hourglass_feature_extractor/hourglass_network/encoder_decoder_block/encoder_decoder_block_1/encoder_decoder_block_2/encoder_decoder_block_3/encoder_decoder_block_4/residual_block_25/convolutional_block_26/batchnorm/batchnorm/sub", "op": "Const", "attr": {"value": {"tensor": {"dtype": "DT_FLOAT", "tensorShape": {"dim": [{"size": "512"}]}}}, "dtype": {"type": "DT_FLOAT"}}}, {"name": "StatefulPartitionedCall/center_net_hourglass_feature_extractor/hourglass_network/encoder_decoder_block/encoder_decoder_block_1/encoder_decoder_block_2/encoder_decoder_block_3/encoder_decoder_block_4/residual_block_25/conv2d_58/Conv2D/merged_input", "op": "Const", "attr": {"dtype": {"type": "DT_FLOAT"}, "value": {"tensor": {"dtype": "DT_FLOAT", "tensorShape": {"dim": [{"size": "3"}, {"size": "3"}, {"size": "512"}, {"size": "512"}]}}}}}, {"name": "StatefulPartitionedCall/center_net_hourglass_feature_extractor/hourglass_network/encoder_decoder_block/encoder_decoder_block_1/encoder_decoder_block_2/encoder_decoder_block_3/encoder_decoder_block_4/residual_block_25/batchnorm/batchnorm/sub", "op": "Const", "attr": {"value": {"tensor": {"dtype": "DT_FLOAT", "tensorShape": {"dim": [{"size": "512"}]}}}, "dtype": {"type": "DT_FLOAT"}}}, {"name": "StatefulPartitionedCall/center_net_hourglass_feature_extractor/hourglass_network/encoder_decoder_block/encoder_decoder_block_1/encoder_decoder_block_2/encoder_decoder_block_3/encoder_decoder_block_4/residual_block_24/convolutional_block_25/zero_padding2d_25/Pad/paddings", "op": "Const", "attr": {"dtype": {"type": "DT_INT32"}, "value": {"tensor": {"dtype": "DT_INT32", "tensorShape": {"dim": [{"size": "4"}, {"size": "2"}]}}}}}, {"name": "StatefulPartitionedCall/center_net_hourglass_feature_extractor/hourglass_network/encoder_decoder_block/encoder_decoder_block_1/encoder_decoder_block_2/encoder_decoder_block_3/encoder_decoder_block_4/residual_block_24/convolutional_block_25/conv2d_55/Conv2D/merged_input", "op": "Const", "attr": {"value": {"tensor": {"dtype": "DT_FLOAT", "tensorShape": {"dim": [{"size": "3"}, {"size": "3"}, {"size": "512"}, {"size": "512"}]}}}, "dtype": {"type": "DT_FLOAT"}}}, {"name": "StatefulPartitionedCall/center_net_hourglass_feature_extractor/hourglass_network/encoder_decoder_block/encoder_decoder_block_1/encoder_decoder_block_2/encoder_decoder_block_3/encoder_decoder_block_4/residual_block_24/convolutional_block_25/batchnorm/batchnorm/sub", "op": "Const", "attr": {"dtype": {"type": "DT_FLOAT"}, "value": {"tensor": {"dtype": "DT_FLOAT", "tensorShape": {"dim": [{"size": "512"}]}}}}}, {"name": "StatefulPartitionedCall/center_net_hourglass_feature_extractor/hourglass_network/encoder_decoder_block/encoder_decoder_block_1/encoder_decoder_block_2/encoder_decoder_block_3/encoder_decoder_block_4/residual_block_24/conv2d_56/Conv2D/merged_input", "op": "Const", "attr": {"dtype": {"type": "DT_FLOAT"}, "value": {"tensor": {"dtype": "DT_FLOAT", "tensorShape": {"dim": [{"size": "3"}, {"size": "3"}, {"size": "512"}, {"size": "512"}]}}}}}, {"name": "StatefulPartitionedCall/center_net_hourglass_feature_extractor/hourglass_network/encoder_decoder_block/encoder_decoder_block_1/encoder_decoder_block_2/encoder_decoder_block_3/encoder_decoder_block_4/residual_block_24/batchnorm/batchnorm/sub", "op": "Const", "attr": {"dtype": {"type": "DT_FLOAT"}, "value": {"tensor": {"dtype": "DT_FLOAT", "tensorShape": {"dim": [{"size": "512"}]}}}}}, {"name": "StatefulPartitionedCall/center_net_hourglass_feature_extractor/hourglass_network/encoder_decoder_block/encoder_decoder_block_1/encoder_decoder_block_2/encoder_decoder_block_3/encoder_decoder_block_4/residual_block_23/convolutional_block_24/zero_padding2d_24/Pad/paddings", "op": "Const", "attr": {"dtype": {"type": "DT_INT32"}, "value": {"tensor": {"dtype": "DT_INT32", "tensorShape": {"dim": [{"size": "4"}, {"size": "2"}]}}}}}, {"name": "StatefulPartitionedCall/center_net_hourglass_feature_extractor/hourglass_network/encoder_decoder_block/encoder_decoder_block_1/encoder_decoder_block_2/encoder_decoder_block_3/encoder_decoder_block_4/residual_block_23/convolutional_block_24/conv2d_53/Conv2D/merged_input", "op": "Const", "attr": {"value": {"tensor": {"dtype": "DT_FLOAT", "tensorShape": {"dim": [{"size": "3"}, {"size": "3"}, {"size": "512"}, {"size": "512"}]}}}, "dtype": {"type": "DT_FLOAT"}}}, {"name": "StatefulPartitionedCall/center_net_hourglass_feature_extractor/hourglass_network/encoder_decoder_block/encoder_decoder_block_1/encoder_decoder_block_2/encoder_decoder_block_3/encoder_decoder_block_4/residual_block_23/convolutional_block_24/batchnorm/batchnorm/sub", "op": "Const", "attr": {"value": {"tensor": {"dtype": "DT_FLOAT", "tensorShape": {"dim": [{"size": "512"}]}}}, "dtype": {"type": "DT_FLOAT"}}}, {"name": "StatefulPartitionedCall/center_net_hourglass_feature_extractor/hourglass_network/encoder_decoder_block/encoder_decoder_block_1/encoder_decoder_block_2/encoder_decoder_block_3/encoder_decoder_block_4/residual_block_23/conv2d_54/Conv2D/merged_input", "op": "Const", "attr": {"dtype": {"type": "DT_FLOAT"}, "value": {"tensor": {"dtype": "DT_FLOAT", "tensorShape": {"dim": [{"size": "3"}, {"size": "3"}, {"size": "512"}, {"size": "512"}]}}}}}, {"name": "StatefulPartitionedCall/center_net_hourglass_feature_extractor/hourglass_network/encoder_decoder_block/encoder_decoder_block_1/encoder_decoder_block_2/encoder_decoder_block_3/encoder_decoder_block_4/residual_block_23/batchnorm/batchnorm/sub", "op": "Const", "attr": {"value": {"tensor": {"dtype": "DT_FLOAT", "tensorShape": {"dim": [{"size": "512"}]}}}, "dtype": {"type": "DT_FLOAT"}}}, {"name": "StatefulPartitionedCall/center_net_hourglass_feature_extractor/hourglass_network/encoder_decoder_block/encoder_decoder_block_1/encoder_decoder_block_2/encoder_decoder_block_3/encoder_decoder_block_4/residual_block_22/convolutional_block_23/zero_padding2d_23/Pad/paddings", "op": "Const", "attr": {"value": {"tensor": {"dtype": "DT_INT32", "tensorShape": {"dim": [{"size": "4"}, {"size": "2"}]}}}, "dtype": {"type": "DT_INT32"}}}, {"name": "StatefulPartitionedCall/center_net_hourglass_feature_extractor/hourglass_network/encoder_decoder_block/encoder_decoder_block_1/encoder_decoder_block_2/encoder_decoder_block_3/encoder_decoder_block_4/residual_block_22/convolutional_block_23/conv2d_51/Conv2D/merged_input", "op": "Const", "attr": {"value": {"tensor": {"dtype": "DT_FLOAT", "tensorShape": {"dim": [{"size": "3"}, {"size": "3"}, {"size": "512"}, {"size": "512"}]}}}, "dtype": {"type": "DT_FLOAT"}}}, {"name": "StatefulPartitionedCall/center_net_hourglass_feature_extractor/hourglass_network/encoder_decoder_block/encoder_decoder_block_1/encoder_decoder_block_2/encoder_decoder_block_3/encoder_decoder_block_4/residual_block_22/convolutional_block_23/batchnorm/batchnorm/sub", "op": "Const", "attr": {"value": {"tensor": {"dtype": "DT_FLOAT", "tensorShape": {"dim": [{"size": "512"}]}}}, "dtype": {"type": "DT_FLOAT"}}}, {"name": "StatefulPartitionedCall/center_net_hourglass_feature_extractor/hourglass_network/encoder_decoder_block/encoder_decoder_block_1/encoder_decoder_block_2/encoder_decoder_block_3/encoder_decoder_block_4/residual_block_22/conv2d_52/Conv2D/merged_input", "op": "Const", "attr": {"value": {"tensor": {"dtype": "DT_FLOAT", "tensorShape": {"dim": [{"size": "3"}, {"size": "3"}, {"size": "512"}, {"size": "512"}]}}}, "dtype": {"type": "DT_FLOAT"}}}, {"name": "StatefulPartitionedCall/center_net_hourglass_feature_extractor/hourglass_network/encoder_decoder_block/encoder_decoder_block_1/encoder_decoder_block_2/encoder_decoder_block_3/encoder_decoder_block_4/residual_block_22/batchnorm/batchnorm/sub", "op": "Const", "attr": {"dtype": {"type": "DT_FLOAT"}, "value": {"tensor": {"dtype": "DT_FLOAT", "tensorShape": {"dim": [{"size": "512"}]}}}}}, {"name": "StatefulPartitionedCall/center_net_hourglass_feature_extractor/hourglass_network/encoder_decoder_block/encoder_decoder_block_1/encoder_decoder_block_2/encoder_decoder_block_3/encoder_decoder_block_4/residual_block_21/convolutional_block_22/zero_padding2d_22/Pad/paddings", "op": "Const", "attr": {"value": {"tensor": {"dtype": "DT_INT32", "tensorShape": {"dim": [{"size": "4"}, {"size": "2"}]}}}, "dtype": {"type": "DT_INT32"}}}, {"name": "StatefulPartitionedCall/center_net_hourglass_feature_extractor/hourglass_network/encoder_decoder_block/encoder_decoder_block_1/encoder_decoder_block_2/encoder_decoder_block_3/encoder_decoder_block_4/residual_block_21/convolutional_block_22/conv2d_49/Conv2D/merged_input", "op": "Const", "attr": {"value": {"tensor": {"dtype": "DT_FLOAT", "tensorShape": {"dim": [{"size": "3"}, {"size": "3"}, {"size": "512"}, {"size": "512"}]}}}, "dtype": {"type": "DT_FLOAT"}}}, {"name": "StatefulPartitionedCall/center_net_hourglass_feature_extractor/hourglass_network/encoder_decoder_block/encoder_decoder_block_1/encoder_decoder_block_2/encoder_decoder_block_3/encoder_decoder_block_4/residual_block_21/convolutional_block_22/batchnorm/batchnorm/sub", "op": "Const", "attr": {"dtype": {"type": "DT_FLOAT"}, "value": {"tensor": {"dtype": "DT_FLOAT", "tensorShape": {"dim": [{"size": "512"}]}}}}}, {"name": "StatefulPartitionedCall/center_net_hourglass_feature_extractor/hourglass_network/encoder_decoder_block/encoder_decoder_block_1/encoder_decoder_block_2/encoder_decoder_block_3/encoder_decoder_block_4/residual_block_21/conv2d_50/Conv2D/merged_input", "op": "Const", "attr": {"dtype": {"type": "DT_FLOAT"}, "value": {"tensor": {"dtype": "DT_FLOAT", "tensorShape": {"dim": [{"size": "3"}, {"size": "3"}, {"size": "512"}, {"size": "512"}]}}}}}, {"name": "StatefulPartitionedCall/center_net_hourglass_feature_extractor/hourglass_network/encoder_decoder_block/encoder_decoder_block_1/encoder_decoder_block_2/encoder_decoder_block_3/encoder_decoder_block_4/residual_block_21/batchnorm/batchnorm/sub", "op": "Const", "attr": {"value": {"tensor": {"dtype": "DT_FLOAT", "tensorShape": {"dim": [{"size": "512"}]}}}, "dtype": {"type": "DT_FLOAT"}}}, {"name": "StatefulPartitionedCall/center_net_hourglass_feature_extractor/hourglass_network/encoder_decoder_block/encoder_decoder_block_1/encoder_decoder_block_2/encoder_decoder_block_3/encoder_decoder_block_4/residual_block_20/convolutional_block_21/zero_padding2d_21/Pad/paddings", "op": "Const", "attr": {"dtype": {"type": "DT_INT32"}, "value": {"tensor": {"dtype": "DT_INT32", "tensorShape": {"dim": [{"size": "4"}, {"size": "2"}]}}}}}, {"name": "StatefulPartitionedCall/center_net_hourglass_feature_extractor/hourglass_network/encoder_decoder_block/encoder_decoder_block_1/encoder_decoder_block_2/encoder_decoder_block_3/encoder_decoder_block_4/residual_block_20/convolutional_block_21/conv2d_47/Conv2D/merged_input", "op": "Const", "attr": {"value": {"tensor": {"dtype": "DT_FLOAT", "tensorShape": {"dim": [{"size": "3"}, {"size": "3"}, {"size": "512"}, {"size": "512"}]}}}, "dtype": {"type": "DT_FLOAT"}}}, {"name": "StatefulPartitionedCall/center_net_hourglass_feature_extractor/hourglass_network/encoder_decoder_block/encoder_decoder_block_1/encoder_decoder_block_2/encoder_decoder_block_3/encoder_decoder_block_4/residual_block_20/convolutional_block_21/batchnorm/batchnorm/sub", "op": "Const", "attr": {"value": {"tensor": {"dtype": "DT_FLOAT", "tensorShape": {"dim": [{"size": "512"}]}}}, "dtype": {"type": "DT_FLOAT"}}}, {"name": "StatefulPartitionedCall/center_net_hourglass_feature_extractor/hourglass_network/encoder_decoder_block/encoder_decoder_block_1/encoder_decoder_block_2/encoder_decoder_block_3/encoder_decoder_block_4/residual_block_20/conv2d_48/Conv2D/merged_input", "op": "Const", "attr": {"dtype": {"type": "DT_FLOAT"}, "value": {"tensor": {"dtype": "DT_FLOAT", "tensorShape": {"dim": [{"size": "3"}, {"size": "3"}, {"size": "512"}, {"size": "512"}]}}}}}, {"name": "StatefulPartitionedCall/center_net_hourglass_feature_extractor/hourglass_network/encoder_decoder_block/encoder_decoder_block_1/encoder_decoder_block_2/encoder_decoder_block_3/encoder_decoder_block_4/residual_block_20/batchnorm/batchnorm/sub", "op": "Const", "attr": {"dtype": {"type": "DT_FLOAT"}, "value": {"tensor": {"dtype": "DT_FLOAT", "tensorShape": {"dim": [{"size": "512"}]}}}}}, {"name": "StatefulPartitionedCall/center_net_hourglass_feature_extractor/hourglass_network/encoder_decoder_block/encoder_decoder_block_1/encoder_decoder_block_2/encoder_decoder_block_3/encoder_decoder_block_4/residual_block_19/convolutional_block_20/zero_padding2d_20/Pad/paddings", "op": "Const", "attr": {"value": {"tensor": {"dtype": "DT_INT32", "tensorShape": {"dim": [{"size": "4"}, {"size": "2"}]}}}, "dtype": {"type": "DT_INT32"}}}, {"name": "StatefulPartitionedCall/center_net_hourglass_feature_extractor/hourglass_network/encoder_decoder_block/encoder_decoder_block_1/encoder_decoder_block_2/encoder_decoder_block_3/encoder_decoder_block_4/residual_block_19/convolutional_block_20/conv2d_44/Conv2D/merged_input", "op": "Const", "attr": {"dtype": {"type": "DT_FLOAT"}, "value": {"tensor": {"dtype": "DT_FLOAT", "tensorShape": {"dim": [{"size": "3"}, {"size": "3"}, {"size": "384"}, {"size": "512"}]}}}}}, {"name": "StatefulPartitionedCall/center_net_hourglass_feature_extractor/hourglass_network/encoder_decoder_block/encoder_decoder_block_1/encoder_decoder_block_2/encoder_decoder_block_3/encoder_decoder_block_4/residual_block_19/convolutional_block_20/batchnorm/batchnorm/sub", "op": "Const", "attr": {"dtype": {"type": "DT_FLOAT"}, "value": {"tensor": {"dtype": "DT_FLOAT", "tensorShape": {"dim": [{"size": "512"}]}}}}}, {"name": "StatefulPartitionedCall/center_net_hourglass_feature_extractor/hourglass_network/encoder_decoder_block/encoder_decoder_block_1/encoder_decoder_block_2/encoder_decoder_block_3/encoder_decoder_block_4/residual_block_19/conv2d_45/Conv2D/merged_input", "op": "Const", "attr": {"value": {"tensor": {"dtype": "DT_FLOAT", "tensorShape": {"dim": [{"size": "3"}, {"size": "3"}, {"size": "512"}, {"size": "512"}]}}}, "dtype": {"type": "DT_FLOAT"}}}, {"name": "StatefulPartitionedCall/center_net_hourglass_feature_extractor/hourglass_network/encoder_decoder_block/encoder_decoder_block_1/encoder_decoder_block_2/encoder_decoder_block_3/encoder_decoder_block_4/residual_block_19/batchnorm/batchnorm/sub", "op": "Const", "attr": {"dtype": {"type": "DT_FLOAT"}, "value": {"tensor": {"dtype": "DT_FLOAT", "tensorShape": {"dim": [{"size": "512"}]}}}}}, {"name": "StatefulPartitionedCall/center_net_hourglass_feature_extractor/hourglass_network/encoder_decoder_block/encoder_decoder_block_1/encoder_decoder_block_2/encoder_decoder_block_3/residual_block_16/convolutional_block_17/zero_padding2d_17/Pad/paddings", "op": "Const", "attr": {"value": {"tensor": {"dtype": "DT_INT32", "tensorShape": {"dim": [{"size": "4"}, {"size": "2"}]}}}, "dtype": {"type": "DT_INT32"}}}, {"name": "StatefulPartitionedCall/center_net_hourglass_feature_extractor/hourglass_network/encoder_decoder_block/encoder_decoder_block_1/encoder_decoder_block_2/encoder_decoder_block_3/residual_block_16/convolutional_block_17/conv2d_38/Conv2D/merged_input", "op": "Const", "attr": {"dtype": {"type": "DT_FLOAT"}, "value": {"tensor": {"dtype": "DT_FLOAT", "tensorShape": {"dim": [{"size": "3"}, {"size": "3"}, {"size": "384"}, {"size": "384"}]}}}}}, {"name": "StatefulPartitionedCall/center_net_hourglass_feature_extractor/hourglass_network/encoder_decoder_block/encoder_decoder_block_1/encoder_decoder_block_2/encoder_decoder_block_3/residual_block_16/convolutional_block_17/batchnorm/batchnorm/sub", "op": "Const", "attr": {"value": {"tensor": {"dtype": "DT_FLOAT", "tensorShape": {"dim": [{"size": "384"}]}}}, "dtype": {"type": "DT_FLOAT"}}}, {"name": "StatefulPartitionedCall/center_net_hourglass_feature_extractor/hourglass_network/encoder_decoder_block/encoder_decoder_block_1/encoder_decoder_block_2/encoder_decoder_block_3/residual_block_16/conv2d_39/Conv2D/merged_input", "op": "Const", "attr": {"dtype": {"type": "DT_FLOAT"}, "value": {"tensor": {"dtype": "DT_FLOAT", "tensorShape": {"dim": [{"size": "3"}, {"size": "3"}, {"size": "384"}, {"size": "384"}]}}}}}, {"name": "StatefulPartitionedCall/center_net_hourglass_feature_extractor/hourglass_network/encoder_decoder_block/encoder_decoder_block_1/encoder_decoder_block_2/encoder_decoder_block_3/residual_block_16/batchnorm/batchnorm/sub", "op": "Const", "attr": {"dtype": {"type": "DT_FLOAT"}, "value": {"tensor": {"dtype": "DT_FLOAT", "tensorShape": {"dim": [{"size": "384"}]}}}}}, {"name": "StatefulPartitionedCall/center_net_hourglass_feature_extractor/hourglass_network/encoder_decoder_block/encoder_decoder_block_1/encoder_decoder_block_2/encoder_decoder_block_3/residual_block_15/convolutional_block_16/zero_padding2d_16/Pad/paddings", "op": "Const", "attr": {"dtype": {"type": "DT_INT32"}, "value": {"tensor": {"dtype": "DT_INT32", "tensorShape": {"dim": [{"size": "4"}, {"size": "2"}]}}}}}, {"name": "StatefulPartitionedCall/center_net_hourglass_feature_extractor/hourglass_network/encoder_decoder_block/encoder_decoder_block_1/encoder_decoder_block_2/encoder_decoder_block_3/residual_block_15/convolutional_block_16/conv2d_35/Conv2D/merged_input", "op": "Const", "attr": {"value": {"tensor": {"dtype": "DT_FLOAT", "tensorShape": {"dim": [{"size": "3"}, {"size": "3"}, {"size": "384"}, {"size": "384"}]}}}, "dtype": {"type": "DT_FLOAT"}}}, {"name": "StatefulPartitionedCall/center_net_hourglass_feature_extractor/hourglass_network/encoder_decoder_block/encoder_decoder_block_1/encoder_decoder_block_2/encoder_decoder_block_3/residual_block_15/convolutional_block_16/batchnorm/batchnorm/sub", "op": "Const", "attr": {"dtype": {"type": "DT_FLOAT"}, "value": {"tensor": {"dtype": "DT_FLOAT", "tensorShape": {"dim": [{"size": "384"}]}}}}}, {"name": "StatefulPartitionedCall/center_net_hourglass_feature_extractor/hourglass_network/encoder_decoder_block/encoder_decoder_block_1/encoder_decoder_block_2/encoder_decoder_block_3/residual_block_15/conv2d_36/Conv2D/merged_input", "op": "Const", "attr": {"value": {"tensor": {"dtype": "DT_FLOAT", "tensorShape": {"dim": [{"size": "3"}, {"size": "3"}, {"size": "384"}, {"size": "384"}]}}}, "dtype": {"type": "DT_FLOAT"}}}, {"name": "StatefulPartitionedCall/center_net_hourglass_feature_extractor/hourglass_network/encoder_decoder_block/encoder_decoder_block_1/encoder_decoder_block_2/encoder_decoder_block_3/residual_block_15/batchnorm/batchnorm/sub", "op": "Const", "attr": {"dtype": {"type": "DT_FLOAT"}, "value": {"tensor": {"dtype": "DT_FLOAT", "tensorShape": {"dim": [{"size": "384"}]}}}}}, {"name": "StatefulPartitionedCall/center_net_hourglass_feature_extractor/hourglass_network/encoder_decoder_block/encoder_decoder_block_1/encoder_decoder_block_2/residual_block_12/convolutional_block_13/zero_padding2d_13/Pad/paddings", "op": "Const", "attr": {"value": {"tensor": {"dtype": "DT_INT32", "tensorShape": {"dim": [{"size": "4"}, {"size": "2"}]}}}, "dtype": {"type": "DT_INT32"}}}, {"name": "StatefulPartitionedCall/center_net_hourglass_feature_extractor/hourglass_network/encoder_decoder_block/encoder_decoder_block_1/encoder_decoder_block_2/residual_block_12/convolutional_block_13/conv2d_29/Conv2D/merged_input", "op": "Const", "attr": {"value": {"tensor": {"dtype": "DT_FLOAT", "tensorShape": {"dim": [{"size": "3"}, {"size": "3"}, {"size": "384"}, {"size": "384"}]}}}, "dtype": {"type": "DT_FLOAT"}}}, {"name": "StatefulPartitionedCall/center_net_hourglass_feature_extractor/hourglass_network/encoder_decoder_block/encoder_decoder_block_1/encoder_decoder_block_2/residual_block_12/convolutional_block_13/batchnorm/batchnorm/sub", "op": "Const", "attr": {"dtype": {"type": "DT_FLOAT"}, "value": {"tensor": {"dtype": "DT_FLOAT", "tensorShape": {"dim": [{"size": "384"}]}}}}}, {"name": "StatefulPartitionedCall/center_net_hourglass_feature_extractor/hourglass_network/encoder_decoder_block/encoder_decoder_block_1/encoder_decoder_block_2/residual_block_12/conv2d_30/Conv2D/merged_input", "op": "Const", "attr": {"dtype": {"type": "DT_FLOAT"}, "value": {"tensor": {"dtype": "DT_FLOAT", "tensorShape": {"dim": [{"size": "3"}, {"size": "3"}, {"size": "384"}, {"size": "384"}]}}}}}, {"name": "StatefulPartitionedCall/center_net_hourglass_feature_extractor/hourglass_network/encoder_decoder_block/encoder_decoder_block_1/encoder_decoder_block_2/residual_block_12/batchnorm/batchnorm/sub", "op": "Const", "attr": {"value": {"tensor": {"dtype": "DT_FLOAT", "tensorShape": {"dim": [{"size": "384"}]}}}, "dtype": {"type": "DT_FLOAT"}}}, {"name": "StatefulPartitionedCall/center_net_hourglass_feature_extractor/hourglass_network/encoder_decoder_block/encoder_decoder_block_1/encoder_decoder_block_2/residual_block_11/convolutional_block_12/zero_padding2d_12/Pad/paddings", "op": "Const", "attr": {"value": {"tensor": {"dtype": "DT_INT32", "tensorShape": {"dim": [{"size": "4"}, {"size": "2"}]}}}, "dtype": {"type": "DT_INT32"}}}, {"name": "StatefulPartitionedCall/center_net_hourglass_feature_extractor/hourglass_network/encoder_decoder_block/encoder_decoder_block_1/encoder_decoder_block_2/residual_block_11/convolutional_block_12/conv2d_26/Conv2D/merged_input", "op": "Const", "attr": {"value": {"tensor": {"dtype": "DT_FLOAT", "tensorShape": {"dim": [{"size": "3"}, {"size": "3"}, {"size": "384"}, {"size": "384"}]}}}, "dtype": {"type": "DT_FLOAT"}}}, {"name": "StatefulPartitionedCall/center_net_hourglass_feature_extractor/hourglass_network/encoder_decoder_block/encoder_decoder_block_1/encoder_decoder_block_2/residual_block_11/convolutional_block_12/batchnorm/batchnorm/sub", "op": "Const", "attr": {"dtype": {"type": "DT_FLOAT"}, "value": {"tensor": {"dtype": "DT_FLOAT", "tensorShape": {"dim": [{"size": "384"}]}}}}}, {"name": "StatefulPartitionedCall/center_net_hourglass_feature_extractor/hourglass_network/encoder_decoder_block/encoder_decoder_block_1/encoder_decoder_block_2/residual_block_11/conv2d_27/Conv2D/merged_input", "op": "Const", "attr": {"value": {"tensor": {"dtype": "DT_FLOAT", "tensorShape": {"dim": [{"size": "3"}, {"size": "3"}, {"size": "384"}, {"size": "384"}]}}}, "dtype": {"type": "DT_FLOAT"}}}, {"name": "StatefulPartitionedCall/center_net_hourglass_feature_extractor/hourglass_network/encoder_decoder_block/encoder_decoder_block_1/encoder_decoder_block_2/residual_block_11/batchnorm/batchnorm/sub", "op": "Const", "attr": {"dtype": {"type": "DT_FLOAT"}, "value": {"tensor": {"dtype": "DT_FLOAT", "tensorShape": {"dim": [{"size": "384"}]}}}}}, {"name": "StatefulPartitionedCall/center_net_hourglass_feature_extractor/hourglass_network/encoder_decoder_block/encoder_decoder_block_1/residual_block_8/convolutional_block_9/zero_padding2d_9/Pad/paddings", "op": "Const", "attr": {"dtype": {"type": "DT_INT32"}, "value": {"tensor": {"dtype": "DT_INT32", "tensorShape": {"dim": [{"size": "4"}, {"size": "2"}]}}}}}, {"name": "StatefulPartitionedCall/center_net_hourglass_feature_extractor/hourglass_network/encoder_decoder_block/encoder_decoder_block_1/residual_block_8/convolutional_block_9/conv2d_20/Conv2D/merged_input", "op": "Const", "attr": {"value": {"tensor": {"dtype": "DT_FLOAT", "tensorShape": {"dim": [{"size": "3"}, {"size": "3"}, {"size": "384"}, {"size": "384"}]}}}, "dtype": {"type": "DT_FLOAT"}}}, {"name": "StatefulPartitionedCall/center_net_hourglass_feature_extractor/hourglass_network/encoder_decoder_block/encoder_decoder_block_1/residual_block_8/convolutional_block_9/batchnorm/batchnorm/sub", "op": "Const", "attr": {"dtype": {"type": "DT_FLOAT"}, "value": {"tensor": {"dtype": "DT_FLOAT", "tensorShape": {"dim": [{"size": "384"}]}}}}}, {"name": "StatefulPartitionedCall/center_net_hourglass_feature_extractor/hourglass_network/encoder_decoder_block/encoder_decoder_block_1/residual_block_8/conv2d_21/Conv2D/merged_input", "op": "Const", "attr": {"value": {"tensor": {"dtype": "D…
er_decoder_block_1/encoder_decoder_block_2/encoder_decoder_block_3/encoder_decoder_block_4/residual_block_22/convolutional_block_23/batchnorm/batchnorm/sub", "shape": [512], "dtype": "float32"}, {"name": "StatefulPartitionedCall/center_net_hourglass_feature_extractor/hourglass_network/encoder_decoder_block/encoder_decoder_block_1/encoder_decoder_block_2/encoder_decoder_block_3/encoder_decoder_block_4/residual_block_22/conv2d_52/Conv2D/merged_input", "shape": [3, 3, 512, 512], "dtype": "float32"}, {"name": "StatefulPartitionedCall/center_net_hourglass_feature_extractor/hourglass_network/encoder_decoder_block/encoder_decoder_block_1/encoder_decoder_block_2/encoder_decoder_block_3/encoder_decoder_block_4/residual_block_22/batchnorm/batchnorm/sub", "shape": [512], "dtype": "float32"}, {"name": "StatefulPartitionedCall/center_net_hourglass_feature_extractor/hourglass_network/encoder_decoder_block/encoder_decoder_block_1/encoder_decoder_block_2/encoder_decoder_block_3/encoder_decoder_block_4/residual_block_21/convolutional_block_22/zero_padding2d_22/Pad/paddings", "shape": [4, 2], "dtype": "int32"}, {"name": "StatefulPartitionedCall/center_net_hourglass_feature_extractor/hourglass_network/encoder_decoder_block/encoder_decoder_block_1/encoder_decoder_block_2/encoder_decoder_block_3/encoder_decoder_block_4/residual_block_21/convolutional_block_22/conv2d_49/Conv2D/merged_input", "shape": [3, 3, 512, 512], "dtype": "float32"}, {"name": "StatefulPartitionedCall/center_net_hourglass_feature_extractor/hourglass_network/encoder_decoder_block/encoder_decoder_block_1/encoder_decoder_block_2/encoder_decoder_block_3/encoder_decoder_block_4/residual_block_21/convolutional_block_22/batchnorm/batchnorm/sub", "shape": [512], "dtype": "float32"}, {"name": "StatefulPartitionedCall/center_net_hourglass_feature_extractor/hourglass_network/encoder_decoder_block/encoder_decoder_block_1/encoder_decoder_block_2/encoder_decoder_block_3/encoder_decoder_block_4/residual_block_21/conv2d_50/Conv2D/merged_input", "shape": [3, 3, 512, 512], "dtype": "float32"}, {"name": "StatefulPartitionedCall/center_net_hourglass_feature_extractor/hourglass_network/encoder_decoder_block/encoder_decoder_block_1/encoder_decoder_block_2/encoder_decoder_block_3/encoder_decoder_block_4/residual_block_21/batchnorm/batchnorm/sub", "shape": [512], "dtype": "float32"}, {"name": "StatefulPartitionedCall/center_net_hourglass_feature_extractor/hourglass_network/encoder_decoder_block/encoder_decoder_block_1/encoder_decoder_block_2/encoder_decoder_block_3/encoder_decoder_block_4/residual_block_20/convolutional_block_21/zero_padding2d_21/Pad/paddings", "shape": [4, 2], "dtype": "int32"}, {"name": "StatefulPartitionedCall/center_net_hourglass_feature_extractor/hourglass_network/encoder_decoder_block/encoder_decoder_block_1/encoder_decoder_block_2/encoder_decoder_block_3/encoder_decoder_block_4/residual_block_20/convolutional_block_21/conv2d_47/Conv2D/merged_input", "shape": [3, 3, 512, 512], "dtype": "float32"}, {"name": "StatefulPartitionedCall/center_net_hourglass_feature_extractor/hourglass_network/encoder_decoder_block/encoder_decoder_block_1/encoder_decoder_block_2/encoder_decoder_block_3/encoder_decoder_block_4/residual_block_20/convolutional_block_21/batchnorm/batchnorm/sub", "shape": [512], "dtype": "float32"}, {"name": "StatefulPartitionedCall/center_net_hourglass_feature_extractor/hourglass_network/encoder_decoder_block/encoder_decoder_block_1/encoder_decoder_block_2/encoder_decoder_block_3/encoder_decoder_block_4/residual_block_20/conv2d_48/Conv2D/merged_input", "shape": [3, 3, 512, 512], "dtype": "float32"}, {"name": "StatefulPartitionedCall/center_net_hourglass_feature_extractor/hourglass_network/encoder_decoder_block/encoder_decoder_block_1/encoder_decoder_block_2/encoder_decoder_block_3/encoder_decoder_block_4/residual_block_20/batchnorm/batchnorm/sub", "shape": [512], "dtype": "float32"}, {"name": "StatefulPartitionedCall/center_net_hourglass_feature_extractor/hourglass_network/encoder_decoder_block/encoder_decoder_block_1/encoder_decoder_block_2/encoder_decoder_block_3/encoder_decoder_block_4/residual_block_19/convolutional_block_20/zero_padding2d_20/Pad/paddings", "shape": [4, 2], "dtype": "int32"}, {"name": "StatefulPartitionedCall/center_net_hourglass_feature_extractor/hourglass_network/encoder_decoder_block/encoder_decoder_block_1/encoder_decoder_block_2/encoder_decoder_block_3/encoder_decoder_block_4/residual_block_19/convolutional_block_20/conv2d_44/Conv2D/merged_input", "shape": [3, 3, 384, 512], "dtype": "float32"}, {"name": "StatefulPartitionedCall/center_net_hourglass_feature_extractor/hourglass_network/encoder_decoder_block/encoder_decoder_block_1/encoder_decoder_block_2/encoder_decoder_block_3/encoder_decoder_block_4/residual_block_19/convolutional_block_20/batchnorm/batchnorm/sub", "shape": [512], "dtype": "float32"}, {"name": "StatefulPartitionedCall/center_net_hourglass_feature_extractor/hourglass_network/encoder_decoder_block/encoder_decoder_block_1/encoder_decoder_block_2/encoder_decoder_block_3/encoder_decoder_block_4/residual_block_19/conv2d_45/Conv2D/merged_input", "shape": [3, 3, 512, 512], "dtype": "float32"}, {"name": "StatefulPartitionedCall/center_net_hourglass_feature_extractor/hourglass_network/encoder_decoder_block/encoder_decoder_block_1/encoder_decoder_block_2/encoder_decoder_block_3/encoder_decoder_block_4/residual_block_19/batchnorm/batchnorm/sub", "shape": [512], "dtype": "float32"}, {"name": "StatefulPartitionedCall/center_net_hourglass_feature_extractor/hourglass_network/encoder_decoder_block/encoder_decoder_block_1/encoder_decoder_block_2/encoder_decoder_block_3/residual_block_16/convolutional_block_17/zero_padding2d_17/Pad/paddings", "shape": [4, 2], "dtype": "int32"}, {"name": "StatefulPartitionedCall/center_net_hourglass_feature_extractor/hourglass_network/encoder_decoder_block/encoder_decoder_block_1/encoder_decoder_block_2/encoder_decoder_block_3/residual_block_16/convolutional_block_17/conv2d_38/Conv2D/merged_input", "shape": [3, 3, 384, 384], "dtype": "float32"}, {"name": "StatefulPartitionedCall/center_net_hourglass_feature_extractor/hourglass_network/encoder_decoder_block/encoder_decoder_block_1/encoder_decoder_block_2/encoder_decoder_block_3/residual_block_16/convolutional_block_17/batchnorm/batchnorm/sub", "shape": [384], "dtype": "float32"}, {"name": "StatefulPartitionedCall/center_net_hourglass_feature_extractor/hourglass_network/encoder_decoder_block/encoder_decoder_block_1/encoder_decoder_block_2/encoder_decoder_block_3/residual_block_16/conv2d_39/Conv2D/merged_input", "shape": [3, 3, 384, 384], "dtype": "float32"}, {"name": "StatefulPartitionedCall/center_net_hourglass_feature_extractor/hourglass_network/encoder_decoder_block/encoder_decoder_block_1/encoder_decoder_block_2/encoder_decoder_block_3/residual_block_16/batchnorm/batchnorm/sub", "shape": [384], "dtype": "float32"}, {"name": "StatefulPartitionedCall/center_net_hourglass_feature_extractor/hourglass_network/encoder_decoder_block/encoder_decoder_block_1/encoder_decoder_block_2/encoder_decoder_block_3/residual_block_15/convolutional_block_16/zero_padding2d_16/Pad/paddings", "shape": [4, 2], "dtype": "int32"}, {"name": "StatefulPartitionedCall/center_net_hourglass_feature_extractor/hourglass_network/encoder_decoder_block/encoder_decoder_block_1/encoder_decoder_block_2/encoder_decoder_block_3/residual_block_15/convolutional_block_16/conv2d_35/Conv2D/merged_input", "shape": [3, 3, 384, 384], "dtype": "float32"}, {"name": "StatefulPartitionedCall/center_net_hourglass_feature_extractor/hourglass_network/encoder_decoder_block/encoder_decoder_block_1/encoder_decoder_block_2/encoder_decoder_block_3/residual_block_15/convolutional_block_16/batchnorm/batchnorm/sub", "shape": [384], "dtype": "float32"}, {"name": "StatefulPartitionedCall/center_net_hourglass_feature_extractor/hourglass_network/encoder_decoder_block/encoder_decoder_block_1/encoder_decoder_block_2/encoder_decoder_block_3/residual_block_15/conv2d_36/Conv2D/merged_input", "shape": [3, 3, 384, 384], "dtype": "float32"}, {"name": "StatefulPartitionedCall/center_net_hourglass_feature_extractor/hourglass_network/encoder_decoder_block/encoder_decoder_block_1/encoder_decoder_block_2/encoder_decoder_block_3/residual_block_15/batchnorm/batchnorm/sub", "shape": [384], "dtype": "float32"}, {"name": "StatefulPartitionedCall/center_net_hourglass_feature_extractor/hourglass_network/encoder_decoder_block/encoder_decoder_block_1/encoder_decoder_block_2/residual_block_12/convolutional_block_13/zero_padding2d_13/Pad/paddings", "shape": [4, 2], "dtype": "int32"}, {"name": "StatefulPartitionedCall/center_net_hourglass_feature_extractor/hourglass_network/encoder_decoder_block/encoder_decoder_block_1/encoder_decoder_block_2/residual_block_12/convolutional_block_13/conv2d_29/Conv2D/merged_input", "shape": [3, 3, 384, 384], "dtype": "float32"}, {"name": "StatefulPartitionedCall/center_net_hourglass_feature_extractor/hourglass_network/encoder_decoder_block/encoder_decoder_block_1/encoder_decoder_block_2/residual_block_12/convolutional_block_13/batchnorm/batchnorm/sub", "shape": [384], "dtype": "float32"}, {"name": "StatefulPartitionedCall/center_net_hourglass_feature_extractor/hourglass_network/encoder_decoder_block/encoder_decoder_block_1/encoder_decoder_block_2/residual_block_12/conv2d_30/Conv2D/merged_input", "shape": [3, 3, 384, 384], "dtype": "float32"}, {"name": "StatefulPartitionedCall/center_net_hourglass_feature_extractor/hourglass_network/encoder_decoder_block/encoder_decoder_block_1/encoder_decoder_block_2/residual_block_12/batchnorm/batchnorm/sub", "shape": [384], "dtype": "float32"}, {"name": "StatefulPartitionedCall/center_net_hourglass_feature_extractor/hourglass_network/encoder_decoder_block/encoder_decoder_block_1/encoder_decoder_block_2/residual_block_11/convolutional_block_12/zero_padding2d_12/Pad/paddings", "shape": [4, 2], "dtype": "int32"}, {"name": "StatefulPartitionedCall/center_net_hourglass_feature_extractor/hourglass_network/encoder_decoder_block/encoder_decoder_block_1/encoder_decoder_block_2/residual_block_11/convolutional_block_12/conv2d_26/Conv2D/merged_input", "shape": [3, 3, 384, 384], "dtype": "float32"}, {"name": "StatefulPartitionedCall/center_net_hourglass_feature_extractor/hourglass_network/encoder_decoder_block/encoder_decoder_block_1/encoder_decoder_block_2/residual_block_11/convolutional_block_12/batchnorm/batchnorm/sub", "shape": [384], "dtype": "float32"}, {"name": "StatefulPartitionedCall/center_net_hourglass_feature_extractor/hourglass_network/encoder_decoder_block/encoder_decoder_block_1/encoder_decoder_block_2/residual_block_11/conv2d_27/Conv2D/merged_input", "shape": [3, 3, 384, 384], "dtype": "float32"}, {"name": "StatefulPartitionedCall/center_net_hourglass_feature_extractor/hourglass_network/encoder_decoder_block/encoder_decoder_block_1/encoder_decoder_block_2/residual_block_11/batchnorm/batchnorm/sub", "shape": [384], "dtype": "float32"}, {"name": "StatefulPartitionedCall/center_net_hourglass_feature_extractor/hourglass_network/encoder_decoder_block/encoder_decoder_block_1/residual_block_8/convolutional_block_9/zero_padding2d_9/Pad/paddings", "shape": [4, 2], "dtype": "int32"}, {"name": "StatefulPartitionedCall/center_net_hourglass_feature_extractor/hourglass_network/encoder_decoder_block/encoder_decoder_block_1/residual_block_8/convolutional_block_9/conv2d_20/Conv2D/merged_input", "shape": [3, 3, 384, 384], "dtype": "float32"}, {"name": "StatefulPartitionedCall/center_net_hourglass_feature_extractor/hourglass_network/encoder_decoder_block/encoder_decoder_block_1/residual_block_8/convolutional_block_9/batchnorm/batchnorm/sub", "shape": [384], "dtype": "float32"}, {"name": "StatefulPartitionedCall/center_net_hourglass_feature_extractor/hourglass_network/encoder_decoder_block/encoder_decoder_block_1/residual_block_8/conv2d_21/Conv2D/merged_input", "shape": [3, 3, 384, 384], "dtype": "float32"}, {"name": "StatefulPartitionedCall/center_net_hourglass_feature_extractor/hourglass_network/encoder_decoder_block/encoder_decoder_block_1/residual_block_8/batchnorm/batchnorm/sub", "shape": [384], "dtype": "float32"}, {"name": "StatefulPartitionedCall/center_net_hourglass_feature_extractor/hourglass_network/encoder_decoder_block/encoder_decoder_block_1/residual_block_7/convolutional_block_8/zero_padding2d_8/Pad/paddings", "shape": [4, 2], "dtype": "int32"}, {"name": "StatefulPartitionedCall/center_net_hourglass_feature_extractor/hourglass_network/encoder_decoder_block/encoder_decoder_block_1/residual_block_7/convolutional_block_8/conv2d_17/Conv2D/merged_input", "shape": [3, 3, 256, 384], "dtype": "float32"}, {"name": "StatefulPartitionedCall/center_net_hourglass_feature_extractor/hourglass_network/encoder_decoder_block/encoder_decoder_block_1/residual_block_7/convolutional_block_8/batchnorm/batchnorm/sub", "shape": [384], "dtype": "float32"}, {"name": "StatefulPartitionedCall/center_net_hourglass_feature_extractor/hourglass_network/encoder_decoder_block/encoder_decoder_block_1/residual_block_7/conv2d_18/Conv2D/merged_input", "shape": [3, 3, 384, 384], "dtype": "float32"}, {"name": "StatefulPartitionedCall/center_net_hourglass_feature_extractor/hourglass_network/encoder_decoder_block/encoder_decoder_block_1/residual_block_7/batchnorm/batchnorm/sub", "shape": [384], "dtype": "float32"}, {"name": "StatefulPartitionedCall/center_net_hourglass_feature_extractor/hourglass_network/encoder_decoder_block/residual_block_4/convolutional_block_5/zero_padding2d_5/Pad/paddings", "shape": [4, 2], "dtype": "int32"}, {"name": "StatefulPartitionedCall/center_net_hourglass_feature_extractor/hourglass_network/encoder_decoder_block/residual_block_4/convolutional_block_5/conv2d_11/Conv2D/merged_input", "shape": [3, 3, 256, 256], "dtype": "float32"}, {"name": "StatefulPartitionedCall/center_net_hourglass_feature_extractor/hourglass_network/encoder_decoder_block/residual_block_4/convolutional_block_5/batchnorm/batchnorm/sub", "shape": [256], "dtype": "float32"}, {"name": "StatefulPartitionedCall/center_net_hourglass_feature_extractor/hourglass_network/encoder_decoder_block/residual_block_4/conv2d_12/Conv2D/merged_input", "shape": [3, 3, 256, 256], "dtype": "float32"}, {"name": "StatefulPartitionedCall/center_net_hourglass_feature_extractor/hourglass_network/encoder_decoder_block/residual_block_4/batchnorm/batchnorm/sub", "shape": [256], "dtype": "float32"}, {"name": "StatefulPartitionedCall/center_net_hourglass_feature_extractor/hourglass_network/encoder_decoder_block/residual_block_3/convolutional_block_4/zero_padding2d_4/Pad/paddings", "shape": [4, 2], "dtype": "int32"}, {"name": "StatefulPartitionedCall/center_net_hourglass_feature_extractor/hourglass_network/encoder_decoder_block/residual_block_3/convolutional_block_4/conv2d_8/Conv2D/merged_input", "shape": [3, 3, 256, 256], "dtype": "float32"}, {"name": "StatefulPartitionedCall/center_net_hourglass_feature_extractor/hourglass_network/encoder_decoder_block/residual_block_3/convolutional_block_4/batchnorm/batchnorm/sub", "shape": [256], "dtype": "float32"}, {"name": "StatefulPartitionedCall/center_net_hourglass_feature_extractor/hourglass_network/encoder_decoder_block/residual_block_3/conv2d_9/Conv2D/merged_input", "shape": [3, 3, 256, 256], "dtype": "float32"}, {"name": "StatefulPartitionedCall/center_net_hourglass_feature_extractor/hourglass_network/encoder_decoder_block/residual_block_3/batchnorm/batchnorm/sub", "shape": [256], "dtype": "float32"}, {"name": "StatefulPartitionedCall/center_net_hourglass_feature_extractor/hourglass_network/input_downsample_block/residual_block/convolutional_block_1/zero_padding2d_1/Pad/paddings", "shape": [4, 2], "dtype": "int32"}, {"name": "StatefulPartitionedCall/center_net_hourglass_feature_extractor/hourglass_network/input_downsample_block/residual_block/convolutional_block_1/conv2d_1/Conv2D/merged_input", "shape": [3, 3, 128, 256], "dtype": "float32"}, {"name": "StatefulPartitionedCall/center_net_hourglass_feature_extractor/hourglass_network/input_downsample_block/residual_block/convolutional_block_1/batchnorm/batchnorm/sub", "shape": [256], "dtype": "float32"}, {"name": "StatefulPartitionedCall/center_net_hourglass_feature_extractor/hourglass_network/input_downsample_block/residual_block/conv2d_2/Conv2D/merged_input", "shape": [3, 3, 256, 256], "dtype": "float32"}, {"name": "StatefulPartitionedCall/center_net_hourglass_feature_extractor/hourglass_network/input_downsample_block/residual_block/batchnorm/batchnorm/sub", "shape": [256], "dtype": "float32"}, {"name": "StatefulPartitionedCall/ResizeToRange/Pad/paddings/0/0", "shape": [], "dtype": "int32"}, {"name": "StatefulPartitionedCall/ResizeToRange/sub/x", "shape": [], "dtype": "int32"}, {"name": "StatefulPartitionedCall/ResizeToRange/strided_slice_2/stack", "shape": [1], "dtype": "int32"}, {"name": "StatefulPartitionedCall/ResizeToRange/strided_slice_2/stack_1", "shape": [1], "dtype": "int32"}, {"name": "StatefulPartitionedCall/ResizeToRange/strided_slice_2/stack_2", "shape": [1], "dtype": "int32"}, {"name": "StatefulPartitionedCall/ResizeToRange/Pad/paddings/1/0", "shape": [], "dtype": "int32"}, {"name": "StatefulPartitionedCall/ResizeToRange/sub_1/x", "shape": [], "dtype": "int32"}, {"name": "StatefulPartitionedCall/ResizeToRange/strided_slice_3/stack", "shape": [1], "dtype": "int32"}, {"name": "StatefulPartitionedCall/ResizeToRange/strided_slice_3/stack_1", "shape": [1], "dtype": "int32"}, {"name": "StatefulPartitionedCall/ResizeToRange/strided_slice_3/stack_2", "shape": [1], "dtype": "int32"}, {"name": "StatefulPartitionedCall/ResizeToRange/Pad_1/paddings/0/0", "shape": [], "dtype": "int32"}, {"name": "StatefulPartitionedCall/ResizeToRange/sub_2/x", "shape": [], "dtype": "int32"}, {"name": "StatefulPartitionedCall/ResizeToRange/strided_slice_4/stack", "shape": [1], "dtype": "int32"}, {"name": "StatefulPartitionedCall/ResizeToRange/strided_slice_4/stack_1", "shape": [1], "dtype": "int32"}, {"name": "StatefulPartitionedCall/ResizeToRange/strided_slice_4/stack_2", "shape": [1], "dtype": "int32"}, {"name": "StatefulPartitionedCall/ResizeToRange/Pad_1/paddings/1/0", "shape": [], "dtype": "int32"}, {"name": "StatefulPartitionedCall/ResizeToRange/sub_3/x", "shape": [], "dtype": "int32"}, {"name": "StatefulPartitionedCall/ResizeToRange/strided_slice_5/stack", "shape": [1], "dtype": "int32"}, {"name": "StatefulPartitionedCall/ResizeToRange/strided_slice_5/stack_1", "shape": [1], "dtype": "int32"}, {"name": "StatefulPartitionedCall/ResizeToRange/strided_slice_5/stack_2", "shape": [1], "dtype": "int32"}, {"name": "StatefulPartitionedCall/ResizeToRange/Pad_2/paddings/0/0", "shape": [], "dtype": "int32"}, {"name": "StatefulPartitionedCall/ResizeToRange/sub_4/x", "shape": [], "dtype": "int32"}, {"name": "StatefulPartitionedCall/ResizeToRange/strided_slice_6/stack", "shape": [1], "dtype": "int32"}, {"name": "StatefulPartitionedCall/ResizeToRange/strided_slice_6/stack_1", "shape": [1], "dtype": "int32"}, {"name": "StatefulPartitionedCall/ResizeToRange/strided_slice_6/stack_2", "shape": [1], "dtype": "int32"}, {"name": "StatefulPartitionedCall/ResizeToRange/Pad_2/paddings/1/0", "shape": [], "dtype": "int32"}, {"name": "StatefulPartitionedCall/ResizeToRange/sub_5/x", "shape": [], "dtype": "int32"}, {"name": "StatefulPartitionedCall/ResizeToRange/strided_slice/stack", "shape": [1], "dtype": "int32"}, {"name": "StatefulPartitionedCall/ResizeToRange/strided_slice/stack_1", "shape": [1], "dtype": "int32"}, {"name": "StatefulPartitionedCall/ResizeToRange/strided_slice/stack_2", "shape": [1], "dtype": "int32"}, {"name": "StatefulPartitionedCall/ResizeToRange/strided_slice_1/stack", "shape": [1], "dtype": "int32"}, {"name": "StatefulPartitionedCall/ResizeToRange/strided_slice_1/stack_1", "shape": [1], "dtype": "int32"}, {"name": "StatefulPartitionedCall/ResizeToRange/strided_slice_1/stack_2", "shape": [1], "dtype": "int32"}, {"name": "StatefulPartitionedCall/ResizeToRange/strided_slice_7/stack", "shape": [1], "dtype": "int32"}, {"name": "StatefulPartitionedCall/ResizeToRange/strided_slice_7/stack_1", "shape": [1], "dtype": "int32"}, {"name": "StatefulPartitionedCall/ResizeToRange/strided_slice_7/stack_2", "shape": [1], "dtype": "int32"}, {"name": "StatefulPartitionedCall/Reshape", "shape": [1, 1, 1, 3], "dtype": "float32"}, {"name": "ConstantFolding/StatefulPartitionedCall/truediv_recip", "shape": [1, 1, 1, 3], "dtype": "float32"}, {"name": "StatefulPartitionedCall/center_net_hourglass_feature_extractor/hourglass_network/input_downsample_block/convolutional_block/zero_padding2d/Pad/paddings", "shape": [4, 2], "dtype": "int32"}, {"name": "StatefulPartitionedCall/center_net_hourglass_feature_extractor/hourglass_network/input_downsample_block/convolutional_block/conv2d/Conv2D/merged_input", "shape": [7, 7, 3, 128], "dtype": "float32"}, {"name": "StatefulPartitionedCall/center_net_hourglass_feature_extractor/hourglass_network/input_downsample_block/convolutional_block/batchnorm/batchnorm/sub", "shape": [128], "dtype": "float32"}, {"name": "StatefulPartitionedCall/center_net_hourglass_feature_extractor/hourglass_network/input_downsample_block/residual_block/skip_convolution/conv2d_3/Conv2D/merged_input", "shape": [1, 1, 128, 256], "dtype": "float32"}, {"name": "StatefulPartitionedCall/center_net_hourglass_feature_extractor/hourglass_network/input_downsample_block/residual_block/skip_convolution/batchnorm/batchnorm/sub", "shape": [256], "dtype": "float32"}, {"name": "StatefulPartitionedCall/center_net_hourglass_feature_extractor/hourglass_network/encoder_decoder_block/residual_block_3/skip_convolution_1/conv2d_10/Conv2D/merged_input", "shape": [1, 1, 256, 256], "dtype": "float32"}, {"name": "StatefulPartitionedCall/center_net_hourglass_feature_extractor/hourglass_network/encoder_decoder_block/residual_block_3/skip_convolution_1/batchnorm/batchnorm/sub", "shape": [256], "dtype": "float32"}, {"name": "StatefulPartitionedCall/center_net_hourglass_feature_extractor/hourglass_network/encoder_decoder_block/encoder_decoder_block_1/residual_block_7/skip_convolution_2/conv2d_19/Conv2D/merged_input", "shape": [1, 1, 256, 384], "dtype": "float32"}, {"name": "StatefulPartitionedCall/center_net_hourglass_feature_extractor/hourglass_network/encoder_decoder_block/encoder_decoder_block_1/residual_block_7/skip_convolution_2/batchnorm/batchnorm/sub", "shape": [384], "dtype": "float32"}, {"name": "StatefulPartitionedCall/center_net_hourglass_feature_extractor/hourglass_network/encoder_decoder_block/encoder_decoder_block_1/encoder_decoder_block_2/residual_block_11/skip_convolution_3/conv2d_28/Conv2D/merged_input", "shape": [1, 1, 384, 384], "dtype": "float32"}, {"name": "StatefulPartitionedCall/center_net_hourglass_feature_extractor/hourglass_network/encoder_decoder_block/encoder_decoder_block_1/encoder_decoder_block_2/residual_block_11/skip_convolution_3/batchnorm/batchnorm/sub", "shape": [384], "dtype": "float32"}, {"name": "StatefulPartitionedCall/center_net_hourglass_feature_extractor/hourglass_network/encoder_decoder_block/encoder_decoder_block_1/encoder_decoder_block_2/encoder_decoder_block_3/residual_block_15/skip_convolution_4/conv2d_37/Conv2D/merged_input", "shape": [1, 1, 384, 384], "dtype": "float32"}, {"name": "StatefulPartitionedCall/center_net_hourglass_feature_extractor/hourglass_network/encoder_decoder_block/encoder_decoder_block_1/encoder_decoder_block_2/encoder_decoder_block_3/residual_block_15/skip_convolution_4/batchnorm/batchnorm/sub", "shape": [384], "dtype": "float32"}, {"name": "StatefulPartitionedCall/center_net_hourglass_feature_extractor/hourglass_network/encoder_decoder_block/encoder_decoder_block_1/encoder_decoder_block_2/encoder_decoder_block_3/encoder_decoder_block_4/residual_block_19/skip_convolution_5/conv2d_46/Conv2D/merged_input", "shape": [1, 1, 384, 512], "dtype": "float32"}, {"name": "StatefulPartitionedCall/center_net_hourglass_feature_extractor/hourglass_network/encoder_decoder_block/encoder_decoder_block_1/encoder_decoder_block_2/encoder_decoder_block_3/encoder_decoder_block_4/residual_block_19/skip_convolution_5/batchnorm/batchnorm/sub", "shape": [512], "dtype": "float32"}, {"name": "StatefulPartitionedCall/center_net_hourglass_feature_extractor/hourglass_network/encoder_decoder_block/encoder_decoder_block_1/encoder_decoder_block_2/encoder_decoder_block_3/encoder_decoder_block_4/residual_block_26/skip_convolution_6/conv2d_61/Conv2D/merged_input", "shape": [1, 1, 512, 384], "dtype": "float32"}, {"name": "StatefulPartitionedCall/center_net_hourglass_feature_extractor/hourglass_network/encoder_decoder_block/encoder_decoder_block_1/encoder_decoder_block_2/encoder_decoder_block_3/encoder_decoder_block_4/residual_block_26/skip_convolution_6/batchnorm/batchnorm/sub", "shape": [384], "dtype": "float32"}, {"name": "StatefulPartitionedCall/center_net_hourglass_feature_extractor/hourglass_network/encoder_decoder_block/encoder_decoder_block_1/encoder_decoder_block_2/encoder_decoder_block_3/encoder_decoder_block_4/up_sampling2d/mul", "shape": [2], "dtype": "int32"}, {"name": "StatefulPartitionedCall/center_net_hourglass_feature_extractor/hourglass_network/encoder_decoder_block/encoder_decoder_block_1/encoder_decoder_block_2/encoder_decoder_block_3/up_sampling2d_1/mul", "shape": [2], "dtype": "int32"}, {"name": "StatefulPartitionedCall/center_net_hourglass_feature_extractor/hourglass_network/encoder_decoder_block/encoder_decoder_block_1/encoder_decoder_block_2/up_sampling2d_2/mul", "shape": [2], "dtype": "int32"}, {"name": "StatefulPartitionedCall/center_net_hourglass_feature_extractor/hourglass_network/encoder_decoder_block/encoder_decoder_block_1/residual_block_32/skip_convolution_7/conv2d_74/Conv2D/merged_input", "shape": [1, 1, 384, 256], "dtype": "float32"}, {"name": "StatefulPartitionedCall/center_net_hourglass_feature_extractor/hourglass_network/encoder_decoder_block/encoder_decoder_block_1/up_sampling2d_3/mul", "shape": [2], "dtype": "int32"}, {"name": "StatefulPartitionedCall/center_net_hourglass_feature_extractor/hourglass_network/encoder_decoder_block/up_sampling2d_4/mul", "shape": [2], "dtype": "int32"}, {"name": "StatefulPartitionedCall/center_net_hourglass_feature_extractor/hourglass_network/convolutional_block_36/zero_padding2d_36/Pad/paddings", "shape": [4, 2], "dtype": "int32"}, {"name": "StatefulPartitionedCall/center_net_hourglass_feature_extractor/hourglass_network/convolutional_block_36/conv2d_79/Conv2D/merged_input", "shape": [3, 3, 256, 256], "dtype": "float32"}, {"name": "StatefulPartitionedCall/center_net_hourglass_feature_extractor/hourglass_network/convolutional_block_36/batchnorm/batchnorm/sub", "shape": [256], "dtype": "float32"}, {"name": "StatefulPartitionedCall/center_net_hourglass_feature_extractor/hourglass_network/convolutional_block_73/conv2d_157/Conv2D/merged_input", "shape": [1, 1, 256, 256], "dtype": "float32"}, {"name": "StatefulPartitionedCall/center_net_hourglass_feature_extractor/hourglass_network/convolutional_block_73/batchnorm/batchnorm/sub", "shape": [256], "dtype": "float32"}, {"name": "StatefulPartitionedCall/center_net_hourglass_feature_extractor/hourglass_network/encoder_decoder_block_5/residual_block_37/skip_convolution_8/conv2d_86/Conv2D/merged_input", "shape": [1, 1, 256, 256], "dtype": "float32"}, {"name": "StatefulPartitionedCall/center_net_hourglass_feature_extractor/hourglass_network/encoder_decoder_block_5/encoder_decoder_block_6/residual_block_41/skip_convolution_9/conv2d_95/Conv2D/merged_input", "shape": [1, 1, 256, 384], "dtype": "float32"}, {"name": "StatefulPartitionedCall/center_net_hourglass_feature_extractor/hourglass_network/encoder_decoder_block_5/encoder_decoder_block_6/encoder_decoder_block_7/residual_block_45/skip_convolution_10/conv2d_104/Conv2D/merged_input", "shape": [1, 1, 384, 384], "dtype": "float32"}, {"name": "StatefulPartitionedCall/center_net_hourglass_feature_extractor/hourglass_network/encoder_decoder_block_5/encoder_decoder_block_6/encoder_decoder_block_7/encoder_decoder_block_8/residual_block_49/skip_convolution_11/conv2d_113/Conv2D/merged_input", "shape": [1, 1, 384, 384], "dtype": "float32"}, {"name": "StatefulPartitionedCall/center_net_hourglass_feature_extractor/hourglass_network/encoder_decoder_block_5/encoder_decoder_block_6/encoder_decoder_block_7/encoder_decoder_block_8/encoder_decoder_block_9/residual_block_53/skip_convolution_12/conv2d_122/Conv2D/merged_input", "shape": [1, 1, 384, 512], "dtype": "float32"}, {"name": "StatefulPartitionedCall/center_net_hourglass_feature_extractor/hourglass_network/encoder_decoder_block_5/encoder_decoder_block_6/encoder_decoder_block_7/encoder_decoder_block_8/encoder_decoder_block_9/residual_block_60/skip_convolution_13/conv2d_137/Conv2D/merged_input", "shape": [1, 1, 512, 384], "dtype": "float32"}, {"name": "StatefulPartitionedCall/center_net_hourglass_feature_extractor/hourglass_network/encoder_decoder_block_5/encoder_decoder_block_6/encoder_decoder_block_7/encoder_decoder_block_8/encoder_decoder_block_9/up_sampling2d_5/mul", "shape": [2], "dtype": "int32"}, {"name": "StatefulPartitionedCall/center_net_hourglass_feature_extractor/hourglass_network/encoder_decoder_block_5/encoder_decoder_block_6/encoder_decoder_block_7/encoder_decoder_block_8/up_sampling2d_6/mul", "shape": [2], "dtype": "int32"}, {"name": "StatefulPartitionedCall/center_net_hourglass_feature_extractor/hourglass_network/encoder_decoder_block_5/encoder_decoder_block_6/encoder_decoder_block_7/up_sampling2d_7/mul", "shape": [2], "dtype": "int32"}, {"name": "StatefulPartitionedCall/center_net_hourglass_feature_extractor/hourglass_network/encoder_decoder_block_5/encoder_decoder_block_6/residual_block_66/skip_convolution_14/conv2d_150/Conv2D/merged_input", "shape": [1, 1, 384, 256], "dtype": "float32"}, {"name": "StatefulPartitionedCall/center_net_hourglass_feature_extractor/hourglass_network/encoder_decoder_block_5/encoder_decoder_block_6/up_sampling2d_8/mul", "shape": [2], "dtype": "int32"}, {"name": "StatefulPartitionedCall/center_net_hourglass_feature_extractor/hourglass_network/encoder_decoder_block_5/up_sampling2d_9/mul", "shape": [2], "dtype": "int32"}, {"name": "StatefulPartitionedCall/center_net_hourglass_feature_extractor/hourglass_network/convolutional_block_71/zero_padding2d_71/Pad/paddings", "shape": [4, 2], "dtype": "int32"}, {"name": "StatefulPartitionedCall/center_net_hourglass_feature_extractor/hourglass_network/convolutional_block_71/conv2d_155/Conv2D/merged_input", "shape": [3, 3, 256, 256], "dtype": "float32"}, {"name": "StatefulPartitionedCall/center_net_hourglass_feature_extractor/hourglass_network/convolutional_block_71/batchnorm/batchnorm/sub", "shape": [256], "dtype": "float32"}, {"name": "unknown_803", "shape": [3, 3, 256, 256], "dtype": "float32"}, {"name": "unknown_804", "shape": [256], "dtype": "float32"}, {"name": "unknown_805", "shape": [1, 1, 256, 90], "dtype": "float32"}, {"name": "unknown_806", "shape": [90], "dtype": "float32"}, {"name": "StatefulPartitionedCall/Less/y", "shape": [], "dtype": "float32"}, {"name": "StatefulPartitionedCall/Reshape_2/shape", "shape": [2], "dtype": "int32"}, {"name": "StatefulPartitionedCall/TopKV2/k", "shape": [], "dtype": "int32"}, {"name": "StatefulPartitionedCall/floordiv_2/y", "shape": [], "dtype": "int32"}, {"name": "StatefulPartitionedCall/mod/y", "shape": [], "dtype": "int32"}, {"name": "StatefulPartitionedCall/GatherV2/axis", "shape": [], "dtype": "int32"}, {"name": "ConstantFolding/StatefulPartitionedCall/truediv_4_recip", "shape": [], "dtype": "float32"}, {"name": "StatefulPartitionedCall/Scale/concat/axis", "shape": [], "dtype": "int32"}, {"name": "StatefulPartitionedCall/ToNormalizedCoordinates/Const", "shape": [2], "dtype": "int32"}, {"name": "StatefulPartitionedCall/ToNormalizedCoordinates/Greater/y", "shape": [], "dtype": "float32"}, {"name": "StatefulPartitionedCall/map/while/cond/_944/map/while/Less/y", "shape": [], "dtype": "int32"}, {"name": "StatefulPartitionedCall/ResizeToRange/cond/else/_857/ResizeToRange/cond/resize/Cast", "shape": [], "dtype": "float32"}, {"name": "StatefulPartitionedCall/ResizeToRange/cond/else/_857/ResizeToRange/cond/resize/Cast_2", "shape": [], "dtype": "float32"}, {"name": "StatefulPartitionedCall/ResizeToRange/cond/else/_857/ResizeToRange/cond/resize/ExpandDims/dim", "shape": [], "dtype": "int32"}, {"name": "StatefulPartitionedCall/ResizeToRange/cond/then/_856/ResizeToRange/cond/resize/Cast", "shape": [], "dtype": "float32"}, {"name": "StatefulPartitionedCall/ResizeToRange/cond/then/_856/ResizeToRange/cond/resize/Cast_2", "shape": [], "dtype": "float32"}, {"name": "StatefulPartitionedCall/ResizeToRange/cond/then/_856/ResizeToRange/cond/resize/ExpandDims/dim", "shape": [], "dtype": "int32"}, {"name": "StatefulPartitionedCall/map/while/body/_945/map/while/ClipToWindow/split/split_dim", "shape": [], "dtype": "int32"}, {"name": "StatefulPartitionedCall/map/while/body/_945/map/while/TensorArrayV2Read/TensorListGetItem/element_shape", "shape": [3], "dtype": "int32"}, {"name": "StatefulPartitionedCall/map/while/body/_945/map/while/TensorArrayV2Read_1/TensorListGetItem/element_shape", "shape": [1], "dtype": "int32"}, {"name": "StatefulPartitionedCall/map/while/body/_945/map/while/ClipToWindow/concat/axis", "shape": [], "dtype": "int32"}, {"name": "StatefulPartitionedCall/map/while/body/_945/map/while/add/y", "shape": [], "dtype": "int32"}, {"name": "StatefulPartitionedCall/map/while/body/_945/map/while/add_1/y", "shape": [], "dtype": "int32"}, {"name": "ConstantFolding/StatefulPartitionedCall/stack_1_const_axis", "shape": [], "dtype": "int32"}, {"name": "ConstantFolding/StatefulPartitionedCall/stack_const_axis", "shape": [], "dtype": "int32"}, {"name": "StatefulPartitionedCall/Assert_1/AssertGuard/pivot_t/_877", "shape": [], "dtype": "bool"}, {"name": "StatefulPartitionedCall/Assert_2/AssertGuard/pivot_t/_886", "shape": [], "dtype": "bool"}, {"name": "StatefulPartitionedCall/Assert_3/AssertGuard/pivot_t/_895", "shape": [], "dtype": "bool"}, {"name": "Func/StatefulPartitionedCall/cond_1/else/_934/output/_1080", "shape": [1, 100, 17], "dtype": "float32"}, {"name": "Func/StatefulPartitionedCall/cond_1/else/_934/output/_1081", "shape": [1, 100, 17, 2], "dtype": "float32"}, {"name": "StatefulPartitionedCall/cond_1/then/_933/cond_1/transpose_1/perm", "shape": [3], "dtype": "int32"}, {"name": "StatefulPartitionedCall/cond_1/then/_933/cond_1/ScatterNd_1/shape", "shape": [3], "dtype": "int32"}, {"name": "StatefulPartitionedCall/cond_1/then/_933/cond_1/transpose_3/perm", "shape": [3], "dtype": "int32"}, {"name": "StatefulPartitionedCall/cond_1/then/_933/cond_1/ExpandDims/dim", "shape": [], "dtype": "int32"}, {"name": "StatefulPartitionedCall/cond_1/then/_933/cond_1/transpose/perm", "shape": [4], "dtype": "int32"}, {"name": "StatefulPartitionedCall/cond_1/then/_933/cond_1/ScatterNd/shape", "shape": [4], "dtype": "int32"}, {"name": "StatefulPartitionedCall/cond_1/then/_933/cond_1/transpose_2/perm", "shape": [4], "dtype": "int32"}, {"name": "StatefulPartitionedCall/ToNormalizedCoordinates/Assert/AssertGuard/pivot_f/_903", "shape": [], "dtype": "bool"}, {"name": "StatefulPartitionedCall/ToNormalizedCoordinates/Assert/AssertGuard/pivot_t/_904", "shape": [], "dtype": "bool"}, {"name": "Func/StatefulPartitionedCall/ToNormalizedCoordinates/Assert/AssertGuard/then/_900/output/_1030", "shape": [], "dtype": "bool"}, {"name": "Func/StatefulPartitionedCall/ToNormalizedCoordinates/Assert/AssertGuard/else/_901/output/_1035", "shape": [], "dtype": "bool"}, {"name": "StatefulPartitionedCall/Assert_4/AssertGuard/pivot_t/_913", "shape": [], "dtype": "bool"}, {"name": "StatefulPartitionedCall/cond/pivot_f/_921", "shape": [], "dtype": "bool"}, {"name": "StatefulPartitionedCall/cond/pivot_t/_922", "shape": [], "dtype": "bool"}, {"name": "Func/StatefulPartitionedCall/cond/else/_919/output/_1067", "shape": [1, 0, 17], "dtype": "float32"}, {"name": "Func/StatefulPartitionedCall/cond/else/_919/output/_1066", "shape": [1, 0, 17, 2], "dtype": "float32"}, {"name": "StatefulPartitionedCall/cond/then/_918/cond/mul_7/x", "shape": [], "dtype": "float32"}, {"name": "StatefulPartitionedCall/cond/then/_918/cond/ones_like_2/Const", "shape": [], "dtype": "float32"}, {"name": "StatefulPartitionedCall/cond/then/_918/cond/transpose_9/perm", "shape": [3], "dtype": "int32"}, {"name": "StatefulPartitionedCall/cond/then/_918/cond/ScatterNd_1/shape/0", "shape": [], "dtype": "int32"}, {"name": "StatefulPartitionedCall/cond/then/_918/cond/ScatterNd_1/shape/1", "shape": [], "dtype": "int32"}, {"name": "StatefulPartitionedCall/cond/then/_918/cond/transpose_11/perm", "shape": [3], "dtype": "int32"}, {"name": "StatefulPartitionedCall/cond/then/_918/cond/ExpandDims_8", "shape": [17, 1], "dtype": "int32"}, {"name": "StatefulPartitionedCall/cond/then/_918/cond/transpose_8/perm", "shape": [4], "dtype": "int32"}, {"name": "StatefulPartitionedCall/cond/then/_918/cond/ScatterNd/shape/0", "shape": [], "dtype": "int32"}, {"name": "StatefulPartitionedCall/cond/then/_918/cond/ScatterNd/shape/1", "shape": [], "dtype": "int32"}, {"name": "StatefulPartitionedCall/cond/then/_918/cond/strided_slice_8/stack", "shape": [4], "dtype": "int32"}, {"name": "StatefulPartitionedCall/cond/then/_918/cond/strided_slice_8/stack_1", "shape": [4], "dtype": "int32"}, {"name": "StatefulPartitionedCall/cond/then/_918/cond/strided_slice_8/stack_2", "shape": [4], "dtype": "int32"}, {"name": "StatefulPartitionedCall/cond/then/_918/cond/strided_slice_9/stack", "shape": [4], "dtype": "int32"}, {"name": "StatefulPartitionedCall/cond/then/_918/cond/strided_slice_9/stack_1", "shape": [4], "dtype": "int32"}, {"name": "StatefulPartitionedCall/cond/then/_918/cond/strided_slice_9/stack_2", "shape": [4], "dtype": "int32"}, {"name": "StatefulPartitionedCall/cond/then/_918/cond/strided_slice_10/stack", "shape": [4], "dtype": "int32"}, {"name": "StatefulPartitionedCall/cond/then/_918/cond/strided_slice_10/stack_1", "shape": [4], "dtype": "int32"}, {"name": "StatefulPartitionedCall/cond/then/_918/cond/strided_slice_10/stack_2", "shape": [4], "dtype": "int32"}, {"name": "StatefulPartitionedCall/cond/then/_918/cond/strided_slice_11/stack", "shape": [4], "dtype": "int32"}, {"name": "StatefulPartitionedCall/cond/then/_918/cond/strided_slice_11/stack_1", "shape": [4], "dtype": "int32"}, {"name": "StatefulPartitionedCall/cond/then/_918/cond/strided_slice_11/stack_2", "shape": [4], "dtype": "int32"}, {"name": "StatefulPartitionedCall/cond/then/_918/cond/GatherV2_7/axis", "shape": [], "dtype": "int32"}, {"name": "StatefulPartitionedCall/cond/then/_918/cond/transpose_7/perm", "shape": [3], "dtype": "int32"}, {"name": "StatefulPartitionedCall/cond/then/_918/cond/Less_3/y", "shape": [], "dtype": "float32"}, {"name": "StatefulPartitionedCall/cond/then/_918/cond/Min/reduction_indices", "shape": [], "dtype": "int32"}, {"name": "StatefulPartitionedCall/cond/then/_918/cond/ScaleHeightWidth/mul", "shape": [], "dtype": "float32"}, {"name": "StatefulPartitionedCall/cond/then/_918/cond/ScaleHeightWidth/mul_4", "shape": [], "dtype": "float32"}, {"name": "ConstantFolding/StatefulPartitionedCall/cond/then/_918/cond/ScaleHeightWidth/get_center_coordinates_and_sizes/truediv_recip", "shape": [], "dtype": "float32"}, {"name": "StatefulPartitionedCall/cond/then/_918/cond/ScaleHeightWidth/mul_2", "shape": [], "dtype": "float32"}, {"name": "ConstantFolding/StatefulPartitionedCall/cond/then/_918/cond/ScaleHeightWidth/get_center_coordinates_and_sizes/truediv_1_recip", "shape": [], "dtype": "float32"}, {"name": "StatefulPartitionedCall/cond/then/_918/cond/ScaleHeightWidth/mul_6", "shape": [], "dtype": "float32"}, {"name": "StatefulPartitionedCall/cond/then/_918/cond/GatherV2_2/axis", "shape": [], "dtype": "int32"}, {"name": "StatefulPartitionedCall/cond/then/_918/cond/Reshape_12/shape", "shape": [2], "dtype": "int32"}, {"name": "StatefulPartitionedCall/cond/then/_918/cond/ScaleHeightWidth/get_center_coordinates_and_sizes/transpose/perm", "shape": [2], "dtype": "int32"}, {"name": "StatefulPartitionedCall/cond/then/_918/cond/Reshape_13/shape/0", "shape": [], "dtype": "int32"}, {"name": "StatefulPartitionedCall/cond/then/_918/cond/strided_slice_7/stack", "shape": [1], "dtype": "int32"}, {"name": "StatefulPartitionedCall/cond/then/_918/cond/strided_slice_7/stack_1", "shape": [1], "dtype": "int32"}, {"name": "StatefulPartitionedCall/cond/then/_918/cond/strided_slice_7/stack_2", "shape": [1], "dtype": "int32"}, {"name": "StatefulPartitionedCall/cond/then/_918/cond/Reshape_13/shape/2", "shape": [], "dtype": "int32"}, {"name": "StatefulPartitionedCall/cond/then/_918/cond/ExpandDims_6/dim", "shape": [], "dtype": "int32"}, {"name": "StatefulPartitionedCall/cond/then/_918/cond/Tile_2/multiples", "shape": [4], "dtype": "int32"}, {"name": "StatefulPartitionedCall/cond/then/_918/cond/mul_6/y", "shape": [], "dtype": "float32"}, {"name": "StatefulPartitionedCall/cond/then/_918/cond/Greater_3/y", "shape": [], "dtype": "int32"}, {"name": "StatefulPartitionedCall/cond/then/_918/cond/ExpandDims_7/dim", "shape": [], "dtype": "int32"}, {"name": "StatefulPartitionedCall/cond/then/_918/cond/Tile_3/multiples", "shape": [4], "dtype": "int32"}, {"name": "StatefulPartitionedCall/cond/then/_918/cond/ExpandDims/dim", "shape": [], "dtype": "int32"}, {"name": "StatefulPartitionedCall/cond/then/_918/cond/ExpandDims_1/dim", "shape": [], "dtype": "int32"}, {"name": "StatefulPartitionedCall/cond/then/_918/cond/Reshape/shape", "shape": [3], "dtype": "int32"}, {"name": "StatefulPartitionedCall/cond/then/_918/cond/GatherV2_3/axis", "shape": [], "dtype": "int32"}, {"name": "StatefulPartitionedCall/cond/then/_918/cond/Reshape_1/shape/0", "shape": [], "dtype": "int32"}, {"name": "StatefulPartitionedCall/cond/then/_918/cond/strided_slice_5/stack", "shape": [1], "dtype": "int32"}, {"name": "StatefulPartitionedCall/cond/then/_918/cond/strided_slice_5/stack_1", "shape": [1], "dtype": "int32"}, {"name": "StatefulPartitionedCall/cond/then/_918/cond/strided_slice_5/stack_2", "shape": [1], "dtype": "int32"}, {"name": "StatefulPartitionedCall/cond/then/_918/cond/Reshape_1/shape/2", "shape": [], "dtype": "int32"}, {"name": "StatefulPartitionedCall/cond/then/_918/cond/Reshape_1/shape/3", "shape": [], "dtype": "int32"}, {"name": "StatefulPartitionedCall/cond/then/_918/cond/Reshape_3/shape", "shape": [4], "dtype": "int32"}, {"name": "StatefulPartitionedCall/cond/then/_918/cond/ExpandDims_4/dim", "shape": [], "dtype": "int32"}, {"name": "StatefulPartitionedCall/cond/then/_918/cond/Reshape_8/shape", "shape": [4], "dtype": "int32"}, {"name": "StatefulPartitionedCall/cond/then/_918/cond/mod_1/y", "shape": [], "dtype": "int32"}, {"name": "StatefulPartitionedCall/cond/then/_918/cond/GatherV2_5/axis", "shape": [], "dtype": "int32"}, {"name": "StatefulPartitionedCall/cond/then/_918/cond/Reshape_9/shape", "shape": [4], "dtype": "int32"}, {"name": "StatefulPartitionedCall/cond/then/_918/cond/transpose_1/perm", "shape": [4], "dtype": "int32"}, {"name": "StatefulPartitionedCall/cond/then/_918/cond/Tile", "shape": [1, 100, 17], "dtype": "int32"}, {"name": "StatefulPartitionedCall/cond/then/_918/cond/transpose_2/perm", "shape": [3], "dtype": "int32"}, {"name": "StatefulPartitionedCall/cond/then/_918/cond/GreaterEqual/y", "shape": [], "dtype": "float32"}, {"name": "StatefulPartitionedCall/cond/then/_918/cond/Sum/reduction_indices", "shape": [], "dtype": "int32"}, {"name": "StatefulPartitionedCall/cond/then/_918/cond/ExpandDims_2/dim", "shape": [], "dtype": "int32"}, {"name": "StatefulPartitionedCall/cond/then/_918/cond/Tile_1/multiples", "shape": [3], "dtype": "int32"}, {"name": "StatefulPartitionedCall/cond/then/_918/cond/mul_4", "shape": [1, 100, 17], "dtype": "float32"}, {"name": "StatefulPartitionedCall/cond/then/_918/cond/ones_like_1", "shape": [1, 100, 17], "dtype": "float32"}, {"name": "StatefulPartitionedCall/cond/then/_918/cond/ExpandDims_3/dim", "shape": [], "dtype": "int32"}, {"name": "StatefulPartitionedCall/cond/then/_918/cond/ExpandDims_5/dim", "shape": [], "dtype": "int32"}, {"name": "StatefulPartitionedCall/cond/then/_918/cond/Sum_1/reduction_indices", "shape": [], "dtype": "int32"}, {"name": "StatefulPartitionedCall/cond/then/_918/cond/ArgMin/dimension", "shape": [], "dtype": "int32"}, {"name": "StatefulPartitionedCall/cond/then/_918/cond/transpose_5/perm", "shape": [3], "dtype": "int32"}, {"name": "StatefulPartitionedCall/cond/then/_918/cond/GatherV2_6/axis", "shape": [], "dtype": "int32"}, {"name": "StatefulPartitionedCall/cond/then/_918/cond/transpose_6/perm", "shape": [4], "dtype": "int32"}, {"name": "StatefulPartitionedCall/cond/then/_918/cond/strided_slice_12/stack", "shape": [1], "dtype": "int32"}, {"name": "StatefulPartitionedCall/cond/then/_918/cond/strided_slice_12/stack_1", "shape": [1], "dtype": "int32"}, {"name": "StatefulPartitionedCall/cond/then/_918/cond/strided_slice_12/stack_2", "shape": [1], "dtype": "int32"}, {"name": "StatefulPartitionedCall/cond/then/_918/cond/ScatterNd/shape/3", "shape": [], "dtype": "int32"}, {"name": "StatefulPartitionedCall/cond/then/_918/cond/transpose_10/perm", "shape": [4], "dtype": "int32"}, {"name": "StatefulPartitionedCall/cond/then/_918/cond/Reshape_7/shape", "shape": [3], "dtype": "int32"}, {"name": "StatefulPartitionedCall/cond/then/_918/cond/floordiv/y", "shape": [], "dtype": "int32"}, {"name": "StatefulPartitionedCall/cond/then/_918/cond/floordiv_1/y", "shape": [], "dtype": "int32"}, {"name": "StatefulPartitionedCall/cond/then/_918/cond/mul_3/y", "shape": [], "dtype": "int32"}, {"name": "StatefulPartitionedCall/cond/then/_918/cond/mul_2/x", "shape": [], "dtype": "int32"}, {"name": "StatefulPartitionedCall/cond/then/_918/cond/Less/y", "shape": [], "dtype": "float32"}, {"name": "StatefulPartitionedCall/cond/then/_918/cond/transpose/perm", "shape": [4], "dtype": "int32"}, {"name": "StatefulPartitionedCall/cond/then/_918/cond/Reshape_4/shape", "shape": [3], "dtype": "int32"}, {"name": "StatefulPartitionedCall/cond/then/_918/cond/TopKV2/k", "shape": [], "dtype": "int32"}, {"name": "StatefulPartitionedCall/cond/then/_918/cond/strided_slice_6", "shape": [1, 17, 1], "dtype": "int32"}, {"name": "StatefulPartitionedCall/cond/then/_918/cond/Reshape_6/shape", "shape": [2], "dtype": "int32"}, {"name": "StatefulPartitionedCall/cond/then/_918/cond/floordiv_2/y", "shape": [], "dtype": "int32"}, {"name": "StatefulPartitionedCall/cond/then/_918/cond/mod/y", "shape": [], "dtype": "int32"}, {"name": "StatefulPartitionedCall/cond/then/_918/cond/GatherV2_4/axis", "shape": [], "dtype": "int32"}, {"name": "StatefulPartitionedCall/cond/then/_918/cond/Assert_6/Condition", "shape": [], "dtype": "bool"}, {"name": "StatefulPartitionedCall/cond/then/_918/cond/strided_slice_1/stack", "shape": [2], "dtype": "int32"}, {"name": "StatefulPartitionedCall/cond/then/_918/cond/strided_slice_1/stack_1", "shape": [2], "dtype": "int32"}, {"name": "StatefulPartitionedCall/cond/then/_918/cond/strided_slice_1/stack_2", "shape": [2], "dtype": "int32"}, {"name": "StatefulPartitionedCall/cond/then/_918/cond/Assert_5/Condition", "shape": [], "dtype": "bool"}, {"name": "StatefulPartitionedCall/cond/then/_918/cond/Assert_4/Condition", "shape": [], "dtype": "bool"}, {"name": "StatefulPartitionedCall/cond/then/_918/cond/strided_slice/stack", "shape": [2], "dtype": "int32"}, {"name": "StatefulPartitionedCall/cond/then/_918/cond/strided_slice/stack_1", "shape": [2], "dtype": "int32"}, {"name": "StatefulPartitionedCall/cond/then/_918/cond/strided_slice/stack_2", "shape": [2], "dtype": "int32"}, {"name": "StatefulPartitionedCall/cond/then/_918/cond/Assert_3/Condition", "shape": [], "dtype": "bool"}, {"name": "StatefulPartitionedCall/cond/then/_918/cond/Assert_2/Condition", "shape": [], "dtype": "bool"}, {"name": "StatefulPartitionedCall/cond/then/_918/cond/Assert/AssertGuard/pivot_t/_1109", "shape": [], "dtype": "bool"}, {"name": "StatefulPartitionedCall/cond/then/_918/cond/strided_slice_2/stack", "shape": [2], "dtype": "int32"}, {"name": "StatefulPartitionedCall/cond/then/_918/cond/strided_slice_2/stack_1", "shape": [2], "dtype": "int32"}, {"name": "StatefulPartitionedCall/cond/then/_918/cond/strided_slice_2/stack_2", "shape": [2], "dtype": "int32"}, {"name": "StatefulPartitionedCall/cond/then/_918/cond/Assert/Condition", "shape": [], "dtype": "bool"}, {"name": "StatefulPartitionedCall/cond/then/_918/cond/strided_slice_3/stack", "shape": [2], "dtype": "int32"}, {"name": "StatefulPartitionedCall/cond/then/_918/cond/strided_slice_3/stack_1", "shape": [2], "dtype": "int32"}, {"name": "StatefulPartitionedCall/cond/then/_918/cond/strided_slice_3/stack_2", "shape": [2], "dtype": "int32"}, {"name": "StatefulPartitionedCall/cond/then/_918/cond/GatherV2/axis", "shape": [], "dtype": "int32"}, {"name": "StatefulPartitionedCall/cond/then/_918/cond/mul/y", "shape": [], "dtype": "int32"}, {"name": "StatefulPartitionedCall/cond/then/_918/cond/strided_slice_4/stack", "shape": [2], "dtype": "int32"}, {"name": "StatefulPartitionedCall/cond/then/_918/cond/strided_slice_4/stack_1", "shape": [2], "dtype": "int32"}, {"name": "StatefulPartitionedCall/cond/then/_918/cond/strided_slice_4/stack_2", "shape": [2], "dtype": "int32"}, {"name": "StatefulPartitionedCall/cond/then/_918/cond/GatherV2_1/axis", "shape": [], "dtype": "int32"}, {"name": "ConstantFolding/StatefulPartitionedCall/stack_4_const_axis", "shape": [], "dtype": "int32"}, {"name": "StatefulPartitionedCall/cond/then/_918/cond/Assert_2/AssertGuard/pivot_t/_1118", "shape": [], "dtype": "bool"}, {"name": "StatefulPartitionedCall/cond/then/_918/cond/Assert_3/AssertGuard/pivot_t/_1127", "shape": [], "dtype": "bool"}, {"name": "StatefulPartitionedCall/cond/then/_918/cond/Assert_4/AssertGuard/pivot_t/_1136", "shape": [], "dtype": "bool"}, {"name": "StatefulPartitionedCall/cond/then/_918/cond/Assert_5/AssertGuard/pivot_t/_1145", "shape": [], "dtype": "bool"}, {"name": "StatefulPartitionedCall/cond/then/_918/cond/Assert_6/AssertGuard/pivot_t/_1154", "shape": [], "dtype": "bool"}]}]}